deepQ_random/q_network_20241216184908-100point.pt (torch, 248614 bytes, 10 tensors)

cnn.0.weight f4 [5, 5, 3, 3]
00000000: fa0b bc3d 91a2 f4bc 6fae 9fbd d890 bcbd
00000010: e406 003d 1448 6bbd a800 64bc fccf ccbd
00000020: a880 ba3d fa57 803d 2b21 b93d 4176 d5bd
00000030: 4cff 4ebb 1a8f fb3d 360c 84bd 0ac9 953c
00000040: 4168 c9bd a97d cd3d 8372 b6bd 09d4 aebd
00000050: 4e86 383d ea4c 12bb 5a19 00be b577 273d
00000060: 43ff 75ba 0e3d 933d c9d2 bfbd df9e f8bd
00000070: 0ee4 423e 1315 883e fc11 0c3e 4ae1 25be
00000080: b0f3 6b3e 0208 773e 5045 4d3e 1b32 1f3e
00000090: 91c9 9d3e 268b b0bd cebd f1bd dc25 54be
000000a0: 97f1 5d3e b590 6ebd 4109 99bd c9a8 a73e
000000b0: 219c 093c b9cf 9b3d 0507 b53c f1eb e93b
000000c0: 0c35 ebbb 4b4d 7d3d 923e 97bd c233 27bc
000000d0: 8cb0 e2bd 32b2 d23d b385 8c3d 4297 933d
000000e0: dcce e03c 9e4a 9cbd 959f 57bd 10e2 af3c
000000f0: ef50 1ebc e856 423d 33e0 ed3d e156 9bbd
00000100: 0d46 38bb a99a 8d3c 6878 2f3d 4071 cb3d
00000110: 14ca 8dbd 790d a23c 97f8 50bb de5d a5bd
00000120: 6fa4 8dbd d2be 1a3e ee68 87be 88d8 763e
00000130: 96d5 133e 50eb febb dcab 11be a0fe 8aba
00000140: 68a9 4abd 8375 433e 4f43 07be 9ebb 1abe
00000150: 49e6 2cbd a74e 3ebe 9e3d 943e d839 123d
00000160: 7842 18be ee6d 0c3e 872a 1fbb 1fa4 db3c
00000170: 69b8 bbbd 656f b8bd 9e65 533c 7f80 653d
00000180: 2340 dd3c 5082 86bd df04 8bbc 801c 14bc
00000190: 7c3d 8abc 8821 b73c 5517 40bd 3b0d 803a
000001a0: 6a26 94bd b2be 173d 7cd6 5abd 808c 49bd
000001b0: a590 ee3c 3a3e 2dbd 95c7 5bbd 1717 78bc
000001c0: be8e 99bd 37c7 313d 7b45 6cbd 8b67 be3c
000001d0: 0db7 0abc 8543 933e d9f7 943d a5f3 8b3d
000001e0: 40d1 8b3e 7e6f dabd 8e0c f93d 30cc 873d
000001f0: a26d 293e b645 8b3e 61d2 abbe 8f34 3fbe
00000200: d574 84be 17b2 b3be 2b1e d43d f379 bcbd
00000210: 6dfd b1bd d441 98be e5ad 0fbe 9fd4 153d
00000220: 1643 873c 6bda 4bbc d039 483b ea88 9bbc
00000230: cb08 063d 414f 66bb cdb8 88bc f9b0 8bbd
00000240: 7d44 9ebd c436 9abd af46 15bd 63a2 463c
00000250: 4922 f93d a027 f33c 4827 913d a775 823c
00000260: 4951 d9bd 48f5 a93d 5815 dd3d cbe9 9a3d
00000270: 9c05 8d3c 665d ddbd 0f9e 12bd f706 9bbd
00000280: 5f16 1c3b 9732 f03d 9cce 153e c830 213e
00000290: 4069 1d3e 10ff 5e3d a251 833e 118d 643e
000002a0: aa1c e43d f568 77bd 7955 9c3e 4d5b e2bd
000002b0: ea9b 59be 0652 f7bd 4765 a2bd c63e 09be
000002c0: 671f ca3b 709d 0fbe 842a a53d d147 0fbd
000002d0: 913a f6bd 6f2c 4a3c c67d 823d 1b98 493d
000002e0: a3aa 13bd c8c6 ce3d 74e9 883d 4680 133d
000002f0: 6a0b e8bd 9930 9d3d 3518 43bd e258 6dbd
00000300: b4fe 933c b7e1 2abd c511 37bd 9278 b3bd
00000310: 623a 25bd 5932 ecbd 500f a7bd d7bd 783c
00000320: 6d32 043d 40a6 863a cfe3 633d db7b 4b3d
00000330: bffe 863d 1a8e 293d 1d58 423d 2d87 eabd
00000340: 4832 a83e 5bcf c3bd e39e 2a3e cccd 8cbd
00000350: 46cf 9f3d ef5c 693e fbff 4fbd 0c1b 5b3d
00000360: e6ac 0b3e 9b1c 0dbe 8a80 8a3d 90bc 8cbe
00000370: 1d46 333d d2a9 afbe 389e 8cbe 70bd c33c
00000380: f858 91be
0.09181972 -0.029862674 -0.077969424 -0.09207314 0.03125657 -0.057441786 -0.013916172 -0.10000607
0.091065705 0.0626678 0.090395294 -0.10422946 -0.0031585274 0.12283154 -0.064476416 0.01828434
-0.09834338 0.100337334 -0.0890856 -0.08536536 0.045049958 -0.0022323676 -0.12509671 0.040885646
-0.0009384045 0.0718938 -0.09366376 -0.12139677 0.19032308 0.26578578 0.13678735 -0.16199222
0.23042178 0.24124148 0.20045972 0.15546457 0.30817845 -0.086202905 -0.118037805 -0.20717567
0.2167419 -0.058243472 -0.07472468 0.3274596 0.00839904 0.07607979 0.022098074 0.007138722
-0.0071779545 0.06184129 -0.07384981 -0.010205211 -0.1106883 0.10287894 0.068614386 0.072065845
0.027442388 -0.076314196 -0.052642424 0.0214701 -0.009662851 0.04744616 0.11615028 -0.0758493
-0.0028117925 0.017285662 0.042839438 0.0993371 -0.06923309 0.019781815 -0.0031886452 -0.08074544
-0.06916129 0.15111855 -0.26447242 0.24106038 0.14436945 -0.0077795163 -0.14225715 -0.0010604449
-0.049477965 0.19087796 -0.1320927 -0.15110633 -0.042211805 -0.18584691 0.2895326 0.035699695
-0.14869106 0.1371381 -0.0024286823 0.026811657 -0.09166033 -0.09005622 0.012902645 0.056030747
0.027008122 -0.06567824 -0.016970096 -0.009039998 -0.016875021 0.022354856 -0.04689725 0.0009769568
-0.072338894 0.037047096 -0.053427204 -0.049206257 0.029121706 -0.042295672 -0.053657133 -0.015142224
-0.07497929 0.043402877 -0.05768345 0.023242733 -0.008466494 0.2876245 0.07273836 0.06833581
0.27308083 -0.10665797 0.12160598 0.066307425 0.16545728 0.27201623 -0.33558944 -0.18672393
-0.25870386 -0.3509681 0.103573166 -0.092029475 -0.08690915 -0.29737723 -0.14031179 0.036579724
0.016511481 -0.012442212 0.0030552037 -0.018986184 0.03272323 -0.0035142454 -0.016689682 -0.06820864
-0.07727907 -0.07529977 -0.036444362 0.012123677 0.121647425 0.02968198 0.070875704 0.015925242
-0.10611207 0.08298737 0.107950866 0.07564124 0.017214589 -0.1080883 -0.035795268 -0.07569688
0.0023817045 0.11728399 0.14629596 0.15741265 0.15372181 0.054442465 0.25648218 0.22319438
0.1113828 -0.06040283 0.3053396 -0.110525705 -0.21250883 -0.120761916 -0.07929473 -0.13402852
0.006168294 -0.14024901 0.0806475 -0.0349806 -0.120228894 0.012339695 0.06371646 0.049217325
-0.036051404 0.10096508 0.06685153 0.036011003 -0.11330302 0.07675285 -0.047630507 -0.057946093
0.018065788 -0.041719165 -0.04469468 -0.08763231 -0.04033888 -0.115330406 -0.081572175 0.01518198
0.032274652 0.0010272935 0.055637177 0.049678665 0.06591558 0.041395284 0.047447313 -0.11451564
0.32850862 -0.09561034 0.16662173 -0.0687519 0.07803206 0.22789358 -0.05078123 0.05349259
0.13640174 -0.13780443 0.06762798 -0.27487612 0.043768037 -0.3430925 -0.2746446 0.023894042
-0.2838819

cnn.0.bias f4 [5]
00000000: 8905 253e 359a c53d 1349 853d b9c4 cabc
00000010: e893 803d
0.16115393 0.09648553 0.065080784 -0.024752008 0.06278211

cnn.2.weight f4 [5, 5, 3, 3]
00000000: 87e4 253c 3db1 96bd f1d7 0e3d d4c2 7d3d
00000010: b2ed 993d 814d 02bd 1f4e 19be 8569 203e
00000020: 136c 9cbd e62b 37be 3c02 783c c01d c53c
00000030: 1fdf dc3d 9dc0 51bd 6094 243e e39d 97bd
00000040: c8ad 04be a51e 483d 0d5e 2a3c cc27 813e
00000050: 7830 72bd 5a56 023e 6ba1 fd3d 4865 a03e
00000060: acbe 0d3e c52c 943e 68c0 303e 6755 543e
00000070: 4d8c 963d c567 1abe fd16 0abe 17f0 7e3e
00000080: d84e 6c3e 2fce 4fbd 5e67 573e 551a 693e
00000090: 8904 dd3d 20fb b6bd 615e c33d 2ba5 4a3e
000000a0: 1abc 003e 9559 da3d 8dbf cdbd 42f0 913e
000000b0: 21a7 193e 74fc 1d3e 1319 23be 1776 05be
000000c0: 2eb8 803e 085f 20be a7ff 8f3e 3c7e 3fbd
000000d0: c3d7 b5bd 600c e83d 8a53 683d 446c ddbc
000000e0: 120f b23d a87e 1b3d 49e9 74bd a1f5 a7be
000000f0: af74 c6bd 6f8b 693e 0592 adbe 762f 26bc
00000100: 897d a73e df8c 253e b8c4 1d3c aadc 6a3d
00000110: 12c4 043e 9069 a53e cb6a 0dbe 7a94 843e
00000120: 993a e73d 25d3 dfbd 03c9 2a3e 9964 16bd
00000130: f5b0 84bd c036 1f3e 7c8d 97bd 1149 cc3c
00000140: fcb1 023e 19f3 553e a06c 4c3e c792 c73d
00000150: 78d1 8d3e 0a19 f6bd 18aa 183e d895 673b
00000160: 75e7 3dbe 7739 aabc 58c0 f7bb 1e81 2a3e
00000170: 61e6 003b fd77 013d 5069 e4bd a1f9 9bbd
00000180: b1ef 0f3e bd99 e2bd 2a43 463d 26a3 b1bd
00000190: 10e6 1fbd 6430 9f3d 55d9 c8bc 8481 af3c
000001a0: 920e e73c b307 163e 200d a73d 65b0 513c
000001b0: dfbb b3bd 6248 483e 50cd 1d3e 71ec 98bd
000001c0: 6f80 053e 84d5 0abe 2e8f 583e fbe9 ba3c
000001d0: 5217 5f3e 2cd1 08be 07be 623e a2d1 d53d
000001e0: 4a82 4d3e 5854 58bd 4c99 14be 4bd1 723c
000001f0: 7265 f9bc 0fa6 6bbd 33d0 a03c 1608 163c
00000200: 3a38 393e 7173 7f3e e1e2 e7bb 8fe4 c53d
00000210: 529c 8b3e dd4d 84be d2ec 9c3e 5f44 0bbe
00000220: 4e89 2f3e 2608 453e 9c13 11bd 3990 1d3e
00000230: 49ae 253e 8ed0 07bc c99a 18be f969 5abd
00000240: 04f3 62bc cd93 afbd 604e a2bd ee5b 133e
00000250: bdd0 6b3d f7cb 80bd 14ab 62bc 542d 283d
00000260: a2c7 8a3e d1a5 95be f815 31be 1566 50be
00000270: aeee 293e e8d2 953e b0f0 63bb 8de9 ee3d
00000280: e571 91bd 91f5 8abd 3905 9abe 4523 27be
00000290: 1ace 9fbd 03e6 9e3b 64b5 893d d3ce bcbc
000002a0: e38a 86bc 920e 023d a47a a83d b093 2d3d
000002b0: ca8a a9bc be2c 993d 626c 053e c134 59bd
000002c0: 85cd 64bd 859f 863d 768d 2fbe b28a 423e
000002d0: 23a0 d8bd b456 623d 2967 95bc 6663 263e
000002e0: 4bff 1dbe 0d7c 93bd 52a1 133e 1cf7 623d
000002f0: 78c6 1abe 4e5e 353d ddc0 1b3d 9f45 b2bd
00000300: 2085 be3d a605 c7bd 2d21 2b3e bc10 c0bd
00000310: d111 073e cba4 0c3d de65 d3bd 7bf0 e93d
00000320: f59b 14be e29a 873d 6be5 c53d 3fb6 e0bc
00000330: b4f4 e0bd 3266 44bd fd95 79bd 0cc8 813e
00000340: e7f4 2fbe be44 a03d 4a9d efbd 1dad f13d
00000350: 0c6b 37be 0b99 ac3d 677f 28be 588c ffbb
00000360: cdc7 933d c046 3a3e 261b 313e dabd 25bd
00000370: 4d85 d1bd 5b54 85bd 12cf 973d bab2 853d
00000380: 5f16 03bd
0.010125286 -0.07358024 0.034873907 0.06195338 0.0751604 -0.031812195 -0.14971207 0.15665253
-0.07637801 -0.1788784 0.0151372515 0.024062037 0.107847445 -0.05120908 0.16072226 -0.074031614
-0.12956917 0.04885735 0.0103984 0.25225675 -0.059128255 0.12728253 0.12384304 0.3132727
0.13842267 0.28940406 0.17260897 0.20735703 0.07350979 -0.15078647 -0.13485332 0.24896275
0.23076952 -0.05073374 0.21035525 0.22763951 0.10791881 -0.08934617 0.09539486 0.19789569
0.12571755 0.10661618 -0.10046301 0.28503615 0.15005161 0.15428334 -0.15927534 -0.13033329
0.25140518 -0.15661252 0.28124735 -0.046751246 -0.08879044 0.11330485 0.056720294 -0.027029164
0.08694281 0.037962586 -0.05979279 -0.32804587 -0.096902244 0.22807096 -0.33900467 -0.0101431515
0.32712963 0.1616702 0.009629421 0.057339348 0.1296542 0.323071 -0.1381027 0.2589453
0.112904735 -0.109289445 0.16678242 -0.03671703 -0.064790644 0.15548229 -0.07400033 0.024937185
0.12763208 0.20893516 0.19963312 0.097447924 0.27698874 -0.120164946 0.14908636 0.0035337117
-0.18545325 -0.020779354 -0.007560771 0.16650817 0.0019668567 0.03160857 -0.11152899 -0.07615972
0.14056279 -0.110644795 0.048403896 -0.08673696 -0.039037764 0.07772902 -0.024517694 0.021424063
0.02820519 0.14651375 0.081568 0.012798403 -0.08776068 0.19558862 0.15410352 -0.074669726
0.13037275 -0.13558012 0.21148369 0.022816649 0.2178624 -0.13361043 0.22142802 0.10440375
0.20069233 -0.05281481 -0.14511603 0.014820407 -0.03044388 -0.057531413 0.019630527 0.009157201
0.18087855 0.24946381 -0.0070766066 0.09662735 0.272677 -0.25840655 0.3064943 -0.136003
0.17142221 0.1924139 -0.03541909 0.15387048 0.16179766 -0.008289469 -0.14902796 -0.05332372
-0.013851885 -0.08573113 -0.07925105 0.14390537 0.057572115 -0.06288903 -0.0138347335 0.041058853
0.27105433 -0.2922807 -0.17293537 -0.20351441 0.16594955 0.2926247 -0.0034780912 0.1166564
-0.07101802 -0.06785119 -0.3008211 -0.16322048 -0.07802983 0.004849197 0.06724051 -0.02304784
-0.016423648 0.031752177 0.08226517 0.042377174 -0.020696063 0.07479237 0.13029626 -0.053028826
-0.05586006 0.06573395 -0.17143807 0.1899822 -0.10577419 0.055258468 -0.018237667 0.16248855
-0.15429418 -0.07201395 0.14417008 0.055411443 -0.15114772 0.04427939 0.038025726 -0.087046854
0.09302735 -0.09717874 0.16711874 -0.09378192 0.1319039 0.034336846 -0.10322164 0.11422821
-0.14512618 0.066213384 0.09662899 -0.027430652 -0.109841734 -0.047949024 -0.060934056 0.25347936
-0.17183267 0.078256115 -0.116999224 0.11800597 -0.17911929 0.08427628 -0.1645485 -0.0077987127
0.07215843 0.18191051 0.17295513 -0.04046426 -0.10230503 -0.0651023 0.074125424 0.0652823
-0.032003757

cnn.2.bias f4 [5]
00000000: 8ba1 92bd 4a55 553c 312d 6dbd 8542 e83d
00000010: a080 ae3d
-0.07159718 0.013020823 -0.057904426 0.113408126 0.08520627

network.0.weight f4 [120, 405]
00000000: 00c2 a1bb af75 febc eac8 25bd 7215 36bd
00000010: 4498 be3c 6d4d 833d 5e73 bcbc 4afa 0fbd
00000020: 8336 213d 0085 47bc d2c3 e4bc f530 71bb
00000030: 876d 403d ed8e 593d 0070 4e3d a750 f7bc
00000040: 1d74 22bd 8f02 493d 6e79 9a3b e931 ef3b
00000050: f2cc cc3d bd99 573d dd6a 5abd 72d7 48bc
00000060: ac8f 803c b757 9b3c ee23 9b3c 9376 843d
00000070: 5098 dfbc 5df3 a83c f879 08bc 746c efbd
00000080: 9431 073c 674d 2d3d a2f3 0f3d 7afd d33c
00000090: 397d 363d 0f4c 17bb 75ad 6fbd 3039 7f3c
000000a0: 31b3 b9bd 5a0d d6bd 9257 913d 5f9c 683c
000000b0: 36b8 d43c dec6 e03c 0da3 66bc c11e 9fbd
000000c0: bbe6 f8bd 0806 3abb 9de3 debc 8aaf a7bc
000000d0: 6f50 793d fb08 c63c 49ec 1c3d 9564 c23c
000000e0: 2e04 f3bc 78f2 27bd 3edb 5ebb e301 933d
000000f0: 354e ddbc 21c7 3fbd 1879 f6bc 7ac6 483d
00000100: 9a75 083b 2979 6c3c d538 2a3d 6cab 9fbd
00000110: f936 87bc 3740 0bbd 5b31 a63b dcf8 2abc
00000120: 7669 0dbd 96fa 2bbd df80 133d 25aa 2a3b
00000130: 0d32 2f3c 5e7a aa3c 11e1 eb3c 4eed 133d
00000140: 96f2 353d eafd 19bb 1b9c 4abb 4b03 eebc
00000150: 86d2 5f3d c8e8 a33d f6fa 1b3c 722a a4bc
00000160: 3fb2 10bc 6d9a d03b f7db 8cbb 950c ef3c
00000170: c9bd 563d f62b 013d 92ee 253c 60cf 17bd
00000180: 9521 0c3c 96c7 2e3b aeb2 ab3c 6362 91bb
00000190: e24e 9a3d dd3f a33d df7a c6bd 67d1 8a3d
000001a0: f558 a5bc 3532 1b3d 07be 4fbc b6f7 21bd
000001b0: 96ea 0b3b fad7 e0bc 4448 d43d dfa0 d5bd
000001c0: e168 ec3d 4398 2dbc cd9e 4e3d 7bc9 0dbc
000001d0: dc21 843d 7aa0 0b3c fab3 b03c 4181 8dbc
000001e0: 29d7 b3bd 5323 353e f054 61bd 228a 843d
000001f0: 42c2 a2bd 1903 e4bc e548 b3bc 8dc6 3dbd
00000200: f322 0dbd d1dc 3ebd 168a 07bd 2220 38bd
00000210: 90dc 60bd a92e 8f3d c6f6 f8bc d325 803d
00000220: 2bd2 4abb 7c2b 84bd acbf 5b3d 505a 9e3a
00000230: 74fe edbc 2f43 ee3b 581e ed3c fbbe e03c
00000240: f74f a13c 70c5 b9bb 6d2d 393d 8d17 8ebd
00000250: 5858 90bd 6603 823c c72b 943d f88d 1c3d
00000260: 5a8f 7f3c 1819 6d3d 6bc2 63bb 5b5c 9e3c
00000270: d8b7 8b3d e01e 10bc 72a8 843d 29bc 75bc
00000280: 5fc2 543d 349e e7bc cc51 35bb 7690 adbc
00000290: 95a4 f7bc d33f cd3c ac4d 2dbd 1271 1fbd
000002a0: 74cb 64bd 03ee a03c 7e23 f53c 752d 3d3b
000002b0: d1a6 dcbb 35fe 643d 9dc2 043d a1b1 003c
000002c0: 72a1 bb3c d08b 0e3d 7c7c 093d 9a9f 42bc
000002d0: 4242 9dbc 48d7 cf3b ad77 8bbd e9d4 b8bd
000002e0: b96c d03b 428f d4bb 51c7 f43c 3636 5c3c
000002f0: 4576 7abc 392f 3bbb ba9c 5f3c 71bd 823b
00000300: e3b5 97bd e542 0d3e 52b5 42bd f0c4 603d
00000310: 5920 5bbc 769c f5bc a765 3a3c 9507 1a3d
00000320: 7214 753c 464c c9bc 28c2 5d3c 3eda babd
00000330: 9372 63bd e89b 6b3b e766 9c3d 6593 d53c
00000340: 5dea 383d 106d 9dbd c2fc 4e3d 0763 75bc
00000350: 8f00 ad3c baef ad3c 9281 af3c b5c4 003d
00000360: 70bf 66bc eb6b 28bc 49e9 2bbc 43e8 86bd
00000370: 9a95 ac3c c8b1 96ba 9f03 a2bc 999a 0ebd
00000380: b590 d63c a6ed d83b fe02 14bd a959 1cbc
00000390: 055f b13c a5be 593c 6c09 38bd 03e4 9e38
000003a0: 01f6 19bc f85f 42bc f65d 7fbb b820 b5bc
000003b0: 24b3 713d b4b6 11ba 2bd1 64bd 186c 66bb
000003c0: ff57 2abd bf36 a43b 0303 063c 1800 0d3d
000003d0: 3ec6 253c 8cf2 c0bc 19a9 e73c cbd3 403d
000003e0: 3962 3f3d d90b 27bd 1a96 fd3b 1737 423d
000003f0: 27ea 373c fddc 0c3d 9f83 873c 82ac 0cba
-0.0049364567 -0.031061975 -0.04047481 -0.044454046 0.023265965 0.06411252 -0.02300423 -0.035150804
0.039358627 -0.012177706 -0.027925406 -0.0036802862 0.046979453 0.05311482 0.05039978 -0.030189825
-0.039661516 0.049074706 0.0047141826 0.007299651 0.10000028 0.05263685 -0.05332457 -0.012258397
0.015693508 0.018962724 0.018938031 0.06467929 -0.027294308 0.020623857 -0.008329861 -0.11690608
0.008251566 0.042310145 0.035144456 0.025877703 0.044553015 -0.0023086106 -0.05851503 0.015577599
-0.09067381 -0.10451765 0.07096781 0.014197438 0.025966745 0.027438577 -0.01407696 -0.07769538
-0.12153383 -0.0028384943 -0.027208144 -0.020469446 0.060867723 0.024174204 0.038311277 0.023729602
-0.029665079 -0.04100272 -0.003400519 0.07178094 -0.027014831 -0.046820763 -0.030087039 0.049017407
0.002082205 0.014433184 0.041558105 -0.07796368 -0.016505705 -0.033996787 0.0050718016 -0.010435309
-0.034524404 -0.041987024 0.036011573 0.0026041355 0.010693085 0.020810302 0.028793843 0.036114983
0.0444208 -0.0023497292 -0.00309158 -0.029054305 0.05464413 0.08003384 0.009520283 -0.02003977
-0.00883156 0.0063660652 -0.004298683 0.029180804 0.052427087 0.031536065 0.01012768 -0.037063003
0.008552928 0.0026669255 0.020959225 -0.0044367774 0.07534577 0.07971165 -0.096914046 0.067782216
-0.02018402 0.037889678 -0.012679583 -0.039542876 0.002134954 -0.027446736 0.10365346 -0.10431074
0.115434416 -0.010595384 0.050444413 -0.008653994 0.06451771 0.008522147 0.021570195 -0.017273547
-0.08781273 0.17689256 -0.055012643 0.06471659 -0.07947208 -0.027833508 -0.021885345 -0.04633193
-0.03445716 -0.046597306 -0.033090673 -0.04495252 -0.054897845 0.069913216 -0.030391108 0.062572144
-0.0030948024 -0.064536065 0.05364959 0.0012081359 -0.029051997 0.0072711925 0.028945133 0.027434817
0.01969145 -0.0056692883 0.045209337 -0.06938086 -0.070481 0.015870761 0.07234912 0.03822133
0.0155981425 0.05788526 -0.0034753333 0.019331148 0.06822175 -0.008796424 0.06477441 -0.014998474
0.05194318 -0.02827368 -0.0027667163 -0.021187048 -0.030229846 0.025054848 -0.0423104 -0.03892619
-0.05585809 0.019644743 0.02992415 0.0028866206 -0.0067337533 0.055906493 0.03241216 0.00785485
0.022904132 0.034801304 0.033565983 -0.011878872 -0.019196633 0.006342802 -0.06809936 -0.090249844
0.006360617 -0.006486804 0.029880198 0.013440659 -0.015286987 -0.0028562082 0.013648206 0.0039898683
-0.07407739 0.1379505 -0.0475362 0.054875314 -0.0133744115 -0.029981833 0.011376775 0.037604887
0.014958488 -0.024572503 0.01353506 -0.09123658 -0.05552919 0.0035951082 0.076368146 0.02607126
0.04514538 -0.07686818 0.050534017 -0.014977223 0.02111843 0.021232475 0.021424089 0.031437594
-0.014083728 -0.010279636 -0.010492631 -0.06587269 0.02106743 -0.0011497075 -0.019777117 -0.034815405
0.026192049 0.006620127 -0.036135666 -0.009542861 0.021651754 0.013290082 -0.04493086 7.5764976e-05
-0.009397031 -0.011863701 -0.0038965917 -0.022110328 0.059008732 -0.0005558536 -0.05586354 -0.0035159644
-0.041587826 0.005011409 0.008179429 0.034423918 0.010118065 -0.023553155 0.028278874 0.04707698
0.04672453 -0.040782783 0.0077388408 0.04741582 0.01122526 0.03439044 0.016542254 -0.0005366282

network.0.bias f4 [120]
00000000: 7919 2a3d 004d 02bd 5abe ae39 7bab 043d
00000010: a177 4d3d 8712 ddbc 9cdd 16bd b88a cfba
00000020: 4ef1 0b3d e706 c83b 8727 06bd 76c6 113d
00000030: 8f8c 883b f2fb 613c c6b5 7a3d 0ca1 6439
00000040: 305e 3c3d d8b0 efbc c44b 2a3d ea86 9bbb
00000050: 9875 5c3c ff85 27bd f43d bb3c 7263 9abc
00000060: e640 50bd 66c1 25bd 7322 3fbd f425 d53b
00000070: c710 f43c 1955 c03c acc4 123d e4e1 ddbc
00000080: c427 00bd 1833 1abd d08d bc3b 114d 34bd
00000090: cd93 123d af02 593d c9b6 a03b f0cc 193d
000000a0: 2501 c4bc 6d0e 553d 381d dc3c d42d 1a3d
000000b0: 701b 59b8 8e68 da3c e9a0 473d 540f 903c
000000c0: 97ae 02bd 1e01 22bc 81a1 1cbd b963 db3b
000000d0: 6fc6 043d 744d 23bd 768c 303c 9a9b f1bc
000000e0: 2cca ef3b 4239 d0bc 572e 363d 63f3 b03c
000000f0: 8ac5 ef39 e0d7 653d 7df9 9fbc f6a8 113c
00000100: 20a5 15bd 5fe5 083d 439b da3c 1ca6 0bbc
00000110: ccbe bdbc 2321 8d3b a024 2ebc c683 b63c
00000120: f046 13bd 95fc e3bc 1cb5 a83c 788d a9bc
00000130: 79e4 e8bc 945d 6e3c 38b4 943c 00c2 943c
00000140: c135 a0bc d4af 073d dd05 283d 8d4a 813c
00000150: f92f fdbc 065b 60bd 13e9 723d fdbe 4b3d
00000160: 5dab 0cbd 8d67 f03b 8d83 f33c e008 0fbc
00000170: 81b3 e23c 681c 21bd 3530 a63b a7d8 9a3d
00000180: de96 403d d54f d6bc 6d2f f63c 474d 413d
00000190: 293f 153c 0406 13bc d283 d73c 0c84 f63b
000001a0: 96cf 30bd 799f b93c 9519 70bd 8348 29bd
000001b0: 7e04 00bd a5f6 ae3c 9d9e a4bc d9d9 4cbd
000001c0: 12d8 2ebc 0135 4ebd cae1 3c3d a067 49ba
000001d0: 9f4a c13c 15e0 c6bc 04ed 1fbd f09b 0e3d
0.0415282 -0.031811714 0.0003332969 0.0323901 0.050162915 -0.026986374 -0.036832437 -0.0015834188
0.034165673 0.0061043384 -0.03275254 0.035589658 0.0041671465 0.013792979 0.06120851 0.00021803769
0.04598826 -0.02925913 0.041576162 -0.0047463076 0.013455771 -0.040899273 0.02285669 -0.018846247
-0.050843142 -0.040467642 -0.046663713 0.0065047685 0.029793156 0.023478078 0.035832092 -0.027085252
-0.031287923 -0.037646383 0.00575421 -0.04401881 0.035785485 0.052981075 0.004904602 0.03754896
-0.023926327 0.05201571 0.026869401 0.03764136 -5.1762385e-05 0.026661184 0.04873744 0.017585434
-0.031904783 -0.009887962 -0.03823996 0.0066952375 0.032415804 -0.039868787 0.010775676 -0.029493142
0.007317802 -0.025417928 0.044477787 0.02160043 0.0004573281 0.056114078 -0.019528145 0.008890381
-0.03653443 0.03342187 0.026685363 -0.00852349 -0.023162268 0.0043069287 -0.010628849 0.022279631
-0.035956323 -0.027830401 0.020594172 -0.02069734 -0.028429257 0.014548678 0.018152341 0.018158913
-0.019556882 0.033126667 0.041021217 0.015782619 -0.030906664 -0.054774307 0.05930431 0.049742687
-0.034343112 0.007336563 0.029725814 -0.008730143 0.027673485 -0.03933373 0.0050716647 0.075608544
0.04701888 -0.026161114 0.030051911 0.047192838 0.009109297 -0.008973602 0.026307974 0.0075230654
-0.04316672 0.02265905 -0.058618147 -0.04132892 -0.031254284 0.021357844 -0.020095164 -0.050012443
-0.010671632 -0.050343517 0.046113767 -0.0007682983 0.023595152 -0.024276773 -0.039044395 0.034816682

network.2.weight f4 [84, 120]
00000000: 78ff 0a3c 7210 da3c 0f97 a63d 7115 be3c
00000010: 768f 96bd 1f25 84bc 6df2 5e3d 6d4d 733d
00000020: ae1b 493d b4fc e43c f299 393c 98b9 383a
00000030: 06c5 11bd 5c17 05be 0f34 c1bd 480b 6abb
00000040: 5b8a 7fbd 4f42 84bd b4bd 463d 7a29 62bd
00000050: b2a0 9d3c 0f7c 6abd 50f4 c23d d952 d83b
00000060: 5e6e 54bd a8ed 913d 9469 d9bc 17ff a6bd
00000070: 1f50 ae3c b3c1 1cbd 5cc4 45bd 601b 2dbd
00000080: f844 e83d 3c08 1fbc 0b12 ab3d 8bbd 3e3d
00000090: 3f11 703d 609d b2bd a95b bc3d 6504 83bd
000000a0: 0764 95bd 3eb1 febd 10bf 78bd 67c8 fabd
000000b0: c9c4 683d 2523 0b3c 5496 ba3d 471f 823d
000000c0: 80f5 01bb 8322 a2bd 77c2 eb3c ed28 10bd
000000d0: dab8 b7bd d827 2c3e 7c1b 9fbc 2f7e 5f3d
000000e0: e8f7 583c c1bb 9d3c f340 dfbc 4996 95bc
000000f0: 1410 633d 60e2 153d f30c 583c e4a9 54bd
00000100: b4e4 993d 062f 54bb 3242 e6bd 50e7 37bd
00000110: 4300 34bd c25c a3bc 36c6 6a3d e265 9b3d
00000120: 66cf bc3d 3c51 b43d 516f cd3d 21ba a23d
00000130: 6878 093c fe8c c0bc 2574 883d 2b71 f23c
00000140: f4ed fd3d 4b67 553d c319 d33c 19f6 63bd
00000150: 6c0d 88bc 9247 b8bc 6b7c bcb9 9566 553c
00000160: 1b2a 4f3e 5915 00bd dd86 51bd 8967 983d
00000170: 8923 38bd 895e 68bd 274e 0c3c e5c0 1b3b
00000180: b76a c03d 2815 e5bd 79bd 443d 4249 e33c
00000190: 41ea 383d 6275 b73d ed67 a2bd 0375 1f3d
000001a0: b1ca b43d b7a6 81bb ed4c 353d 662e 2d3d
000001b0: e75a d0bb 7cde d9bc ba75 473e 318a 2bbd
000001c0: af61 9f3b 17b7 893e a267 8c3d 2333 723d
000001d0: e2c0 183d aa33 f3bc 0a57 bebc 7d00 983d
000001e0: a13a 85bd 0767 933c 2138 503d 6af3 093d
000001f0: 3460 923d 3e5d a33c 59af ab3c b40a 943d
00000200: 61d8 083c 1b97 46bd 026d ab3d b4a5 eb3d
00000210: 12c4 bdbc d72f 803d 365a b7bd e7d4 5c3d
00000220: 0f6a 9cbc 3c2d 8fbd 1f00 a33d c7fa a5bc
00000230: fbd5 003d 6513 3f3d ad83 963d c162 50bd
00000240: cae0 fcba 4274 47bd d1e1 fc3c 9cb9 e13c
00000250: d7c5 73bd 566e 6bbd 9ecf 253d 3847 5c3d
00000260: 359c 06bc 5a09 28bd 4e8c f43c cbb6 c83a
00000270: 1708 9bbc f6be 5fbc b9c3 b7bd d6da 68bc
00000280: ab62 22bd a3da 33bc a5f6 27bc 1882 4bbd
00000290: 1acd ebbc 1f22 b43d 458f b0bd 5f93 a4bd
000002a0: 22bb 81bd 055e d33d 0a24 273c a30d 223d
000002b0: 6387 adbc 6459 3ebe 8e0d 233c bb54 2bbd
000002c0: fcc6 83bc 1948 ab3d 4df0 fdba 9636 1bbd
000002d0: be86 933d 2de8 c2bd eb45 57bd 10ad c7bc
000002e0: 2b2e 2d3c 56d1 7f3d aada 7e3b 8ffd 03bb
000002f0: dab8 c83d 54fa 243d 1c47 ef3d a4ae bb3d
00000300: c596 213d 67e9 78bd fe5a 463c d3d4 c5bc
00000310: a28f 22bd a29c cc3d 083c 893b eb59 1b3e
00000320: abf5 8fbc f9dd 683d b89f 79bd 371d 34bd
00000330: abd7 083d 4282 b4bd a634 a03c 5c5c 933d
00000340: 93e0 c13d f56b 4a3d fc74 cebd 5a62 42bd
00000350: 0150 9abd 0670 69bd ee55 d83d 35d3 cdbc
00000360: 3cfe 6a3c 2787 afbc 773b c03d 0c72 7fbd
00000370: f901 303d d16d e53d 5de4 36bd b276 9f3c
00000380: 738d 9fbd 5d89 31bb d984 b13d 54c0 ef3a
00000390: b285 983b 6487 633d 7006 87bd 1953 8bbd
000003a0: 1ce6 33bc bfd9 063d c95a cc3c aa09 64bd
000003b0: 92e7 843d 58a1 873c 8f93 4abc 550c 6dbd
000003c0: 2f92 adbc 4024 7b3d d061 3f3d 832a aebc
000003d0: bacd 50bc 7b80 153d 5b23 403c 62ad 123d
000003e0: f94c f7bc 4fca cabd e199 57bd 9f7a 56bd
000003f0: 80ff cbbc 4329 56bd 640e 243d 8096 773d
0.00848376 0.02661917 0.08134281 0.023203583 -0.07351582 -0.016130982 0.054430414 0.05940001
0.049098663 0.02795253 0.011328207 0.00070466986 -0.035588287 -0.12997192 -0.094337575 -0.003571229
-0.062387805 -0.0645796 0.04852076 -0.055215336 0.019241665 -0.057247218 0.09519255 0.006601673
-0.051863067 0.071254075 -0.026539601 -0.08154123 0.02127844 -0.038270663 -0.048282966 -0.042262435
0.1134128 -0.009706553 0.08353051 0.04656748 0.058610197 -0.08721423 0.0919717 -0.063973226
-0.07294469 -0.1243615 -0.060729086 -0.12245255 0.056828294 0.008492266 0.09110704 0.06353622
-0.0019830167 -0.07916739 0.028779252 -0.03519528 -0.089708045 0.16812074 -0.019422285 0.054563697
0.013242699 0.019254567 -0.02725265 -0.018260138 0.055435255 0.03659284 0.013186681 -0.051919833
0.07514325 -0.003237666 -0.112430945 -0.04489833 -0.043945562 -0.019941691 0.057317935 0.07587792
0.092192456 0.08804557 0.100309975 0.079456575 0.0083905235 -0.02350473 0.06662778 0.029594978
0.123989016 0.05210046 0.02576912 -0.05565462 -0.016607963 -0.022495065 -0.00035950853 0.013024946
0.20230906 -0.03127036 -0.051154006 0.07441623 -0.044955764 -0.05673078 0.008563555 0.0023766097
0.09395354 -0.11185676 0.048032258 0.027744893 0.045145277 0.08957936 -0.079299785 0.03892995
0.08827723 -0.0039566415 0.044262815 0.042280577 -0.0063584927 -0.026595347 0.19478503 -0.041879836
0.0048639397 0.268975 0.06855704 0.0591308 0.037293322 -0.029687721 -0.023234863 0.07421968
-0.06505323 0.017993463 0.05083478 0.033679403 0.071472555 0.019941922 0.020957636 0.07228604
0.00835237 -0.04848395 0.08370401 0.11506215 -0.023164783 0.06259125 -0.08952753 0.053913977
-0.019093541 -0.0699105 0.079590075 -0.020261182 0.031454068 0.046649355 0.07349334 -0.05087543
-0.0019293067 -0.048694856 0.030869396 0.027554326 -0.059514847 -0.05747827 0.040481202 0.053778857
-0.008215954 -0.041024543 0.029852059 0.0015313266 -0.018924756 -0.0136563685 -0.08972878 -0.014212331
-0.03964488 -0.01097742 -0.010251676 -0.049684614 -0.028784323 0.087955706 -0.086210765 -0.08035921
-0.06334521 0.10320667 0.0102014635 0.039563786 -0.021182721 -0.18588787 0.009951962 -0.041828852
-0.016086094 0.08363361 -0.0019373983 -0.037893854 0.072034344 -0.0951694 -0.052556913 -0.024374515
0.010570089 0.062455498 0.0038887658 -0.0020140146 0.09800883 0.040277794 0.11683485 0.091641694
0.039450426 -0.060769465 0.012106655 -0.024149334 -0.03968776 0.09990813 0.0041880645 0.1517102
-0.017573198 0.056852315 -0.060943335 -0.043973174 0.033408802 -0.08813907 0.019556355 0.071953505
0.09466662 0.049419362 -0.10080907 -0.047457077 -0.07534791 -0.0569916 0.10563265 -0.025125125
0.014342841 -0.02142675 0.09386342 -0.062364623 0.04297063 0.112025864 -0.044651378 0.019465778
-0.07790651 -0.0027089932 0.08667917 0.0018291571 0.0046546096 0.05554904 -0.06593025 -0.06802959
-0.010980155 0.032922503 0.024945633 -0.05567328 0.06489481 0.016556427 -0.012364282 -0.05787309
-0.02118787 0.061313868 0.04672414 -0.021260506 -0.012744362 0.03649948 0.011727179 0.035809882
-0.03018807 -0.099018686 -0.052636985 -0.052363034 -0.024902105 -0.052285444 0.040052786 0.060446262

network.2.bias f4 [84]
00000000: 37a5 1cbd 2121 8bbd fa5c 323d 5dd6 14bd
00000010: 0909 5dbc 5733 30bd a2ab 7abd b1dc 693d
00000020: e1e1 153c df59 7bbc 17db ab3d c3f2 403c
00000030: 3754 01bd 0a1c 93bd cb77 c53c cc90 b03c
00000040: b913 91bd c570 913d b149 3a3c 7fa0 343d
00000050: bf41 19bd 3454 9fbd f20f 9ebc c453 333d
00000060: 85c4 22bd 59f6 4cbd b564 8fbd 4454 79bd
00000070: 1b79 5ebc 6183 093d adc6 d7bd da16 8bbd
00000080: f9aa 0e3d d956 e4bc 8582 2bbd d263 0e3d
00000090: b08c 743d e821 8c3d 9fb1 c7ba f52c b23d
000000a0: b4a2 6c3c 1b1a 21bd 12ac 9bbd ecc3 46bc
000000b0: 3b4f afbd f99b 74bd 986a 023c 0465 4bbd
000000c0: 863b 08bd 46d0 80bc bb4b 933d 2d6b 40bc
000000d0: dee8 a6bd 705a 6b3d 22d9 a83c e4ec 223c
000000e0: 1079 8cbd bae5 04bd e97d 1c3d 7852 ddbc
000000f0: acc0 d23d c22a 533c f69d a6bd 4f52 57bd
00000100: a789 90bb 6f31 443d aa5f 903d d893 7bbd
00000110: 349c 5dbd 985d aabd c846 ecbc 162b 933d
00000120: c524 823d 2c21 2e3d 0ef4 79bd 552f 15b9
00000130: e19f 263d f999 45bc 452e c43c 2433 b2bc
00000140: 95ae 60bc 5f7a 8dbd 4068 48bc 84b7 02bd
-0.0382435 -0.06793428 0.0435457 -0.036337245 -0.013490924 -0.04301771 -0.061198838 0.057095233
0.009148092 -0.015341251 0.083913974 0.011776629 -0.031574454 -0.071830824 0.024104973 0.02155342
-0.0708384 0.07101587 0.011370108 0.044098374 -0.037416216 -0.07779732 -0.019294713 0.043781057
-0.039738197 -0.050039623 -0.0700163 -0.060871378 -0.0135786785 0.03357256 -0.10535941 -0.06791468
0.03483102 -0.027873443 -0.04187252 0.034763165 0.059704483 0.068424046 -0.001523543 0.08699981
0.014443088 -0.039331537 -0.07601179 -0.012131672 -0.08560034 -0.05971906 0.007959984 -0.049656883
-0.03325989 -0.015724313 0.07192179 -0.011744303 -0.08149885 0.057459295 0.02061135 0.009944174
-0.06859028 -0.032445647 0.038206015 -0.027016863 0.102906555 0.012888612 -0.081355974 -0.05256873
-0.0044109407 0.047898706 0.070494965 -0.06142029 -0.054104045 -0.08318633 -0.028842345 0.07185952
0.063546695 0.042512104 -0.061023764 -0.0001422738 0.040679816 -0.012060636 0.023947844 -0.021752901
-0.013713499 -0.06908106 -0.012231886 -0.031913295

network.4.weight f4 [21, 84]
00000000: 93e8 b13d 3fa0 aabb f4b0 9a3d b112 a1bc
00000010: 2a20 d1bd 8425 fbb9 f642 8d3d 224d c83d
00000020: d038 80bc e14b b83c d89d fabc 691a 383c
00000030: 45e4 5e3b bbb6 343d c355 1abd 5ae8 c43d
00000040: 7086 80bb 17df 6abd 297a b43b 9cba 00bb
00000050: 8bf6 08bd bf2a 8abc 1007 87ba 9bed a8bd
00000060: c1d4 a73d dbd6 7abd 6209 ebbc 0395 a2bd
00000070: 9d0c c23c 7c69 abbc 0d73 f5bc e7bd 5ebd
00000080: 4c39 be3d a7b6 acbd 8017 f8bc 8e54 8bbd
00000090: cb9f 2e3d 943c 28bd 86cd d6bc a707 9c3d
000000a0: e302 d73b cf22 b0bd a7cc 83bd eacb 883d
000000b0: dc15 a6bd 28c1 803d 37e7 88bd 8e4d d9bd
000000c0: 4edd 2abc 18fa a6bd d6a3 f3bc 43f0 303d
000000d0: 0dbd a43b a597 5cbd b9c7 853c 586e fe3c
000000e0: c9e2 93bc d50d 053d d785 be3d 81dd acbd
000000f0: 1c17 48bc 7253 813d cbc0 683d ecc6 eb3c
00000100: c002 b2bc 18e3 e23b 0bb8 c63b d59b d83c
00000110: 8547 98bc 7da6 843d f898 363d 42a8 b0bd
00000120: c2eb c53d 4879 a93d ebee 53bd 8852 44bd
00000130: 294f 98bd e422 c3bb 735a 88bc e2eb 2fbd
00000140: 2b6f ad3d c8e2 8ebd bcd1 cbbc c638 b4bc
00000150: f757 9ebc 4106 84bd 94e3 803d 0ef5 c2bd
00000160: 8ac9 a8bc 2aff 3a3d fba1 2bbd 1ad1 adbd
00000170: 6429 2abd ee39 efbc 34a5 adbc 5173 bb3d
00000180: 444f 84bd 883c 5fbd 3046 293d 1706 08bd
00000190: 7e7f 7b3d df81 e73d db1c b03d b2c7 86bd
000001a0: cc0d ad3d 2354 183d 1941 b4bd 1026 b73d
000001b0: 259b 173d d275 d0bc 224c b63d 7b85 95bd
000001c0: 1598 f8bc 0531 e23b a834 26bd 3eb4 b93b
000001d0: e2f1 d43d 62ab 16bc efab 1bbd cf64 a7bd
000001e0: cc14 37bc c62d 42bc 832f febc 75f7 863c
000001f0: da83 db3d 86e0 10bd a063 3b3d c567 b43d
00000200: 855d d7bc 0707 38bc f0d2 8c3d 0d49 82bd
00000210: 6fbb e0bc 0769 843d aea6 873d 14ff ad3c
00000220: 267e c9bc 3d5e 4bbd 3808 393c 402c 5e3c
00000230: dfac 33bc acd3 10bd 2ecb a2bd b217 383d
00000240: 5d0c 4c3c 3b09 f83c a105 7c3d 5d7c 4bbd
00000250: 934b d8bc 5821 56bd 2ecd d8bc 346f 413d
00000260: b8f9 8d3b 2200 cbbd 48e2 b1bd 1ea2 023d
00000270: 87f2 e83c 25ba 613c 76bf ea3d e18d 9dbd
00000280: e57f 683d 9764 0e3c d07d a9bd 9e55 3d3d
00000290: d8f0 233e 0b47 4ebc 0959 6c3c 1328 e4bd
000002a0: 86fd 853d 2c5e 5abd e97b c6bd a760 c43d
000002b0: 192a 92bc 5cb2 203d 6796 343d 16ef 2fbd
000002c0: 13ae 97bc ee76 b93d 6613 f53c bd86 6fbd
000002d0: aa26 7d3d 487b d73c 3425 51bd e58b c2bd
000002e0: fba9 ac3d f75e 6c3d 17e0 b6bd d514 3e3d
000002f0: fd1f 28bd 8713 d6bd bc72 a03d c06e 40bc
00000300: adc1 a3bd a883 1a3c b7f1 8ebd e153 4dbd
00000310: c31d c43d ba53 0bbd 6981 a3bd a4c8 67bd
00000320: d9e5 44bd 1f3c da3d 8ebf a33c ae52 e23d
00000330: e1ca a13d fa0c 0e3d d512 3f3b 2fea a83d
00000340: 5878 ceba 390e e9bd abef 1cbd 1bab bcbd
00000350: 015e 5abc fa0e fd3c 0034 b03d ec0c 99bd
00000360: 7532 89bd 7682 5abd 0ed7 b4bd 2ead c43d
00000370: c43e 25bd bd75 b53d f0ec 9bbd abcf 273d
00000380: bd64 703c b2ed acbd 8865 0a3d 52af 203c
00000390: 3127 f03c 2551 8d3c 48df bf3c 4d8c b23c
000003a0: 4fe8 d93b aaba 2d3d 4f07 933d 549a 63bd
000003b0: b6ac 5abc e273 9abb efd8 1cbd 094f 55bc
000003c0: 0bcf cd3d b82f 3d3d 988b 55bd 3048 1cbb
000003d0: bb5a eb3c d646 afbc 4895 e33d a546 c23d
000003e0: 89fa 32bc 9bbb 36bd 6143 cb3c 0341 2ebd
000003f0: cf96 da3c 7d04 593d 95f3 9fbd 4eac afbc
0.08686938 -0.005207091 0.075532824 -0.019662233 -0.10211213 -0.00047902402 0.068975374 0.09780337
-0.01565209 0.02249712 -0.030592844 0.011236765 0.003401057 0.044119578 -0.037679445 0.0961463
-0.003922276 -0.05734166 0.0055077267 -0.0019642478 -0.033438247 -0.016866086 -0.0010301787 -0.08248445
0.081948765 -0.06124006 -0.028690998 -0.07938578 0.023687655 -0.020924322 -0.029962087 -0.054380324
0.09288272 -0.08433276 -0.030284643 -0.06803237 0.04263286 -0.041073397 -0.026221048 0.07618647
0.0065616234 -0.08600389 -0.06435519 0.066795185 -0.08109638 0.06286842 -0.06684726 -0.106104955
-0.01042874 -0.0815317 -0.029741209 0.04319788 0.0050274194 -0.053855557 0.016330587 0.031058475
-0.018052476 0.032483894 0.09302872 -0.08440686 -0.012212541 0.06314744 0.056824487 0.028781377
-0.021729827 0.0069240443 0.00606442 0.026441494 -0.01858879 0.064770676 0.044579476 -0.08625843
0.09664108 0.08275086 -0.05174152 -0.04793027 -0.074369736 -0.005955087 -0.016644692 -0.042949565
0.08468469 -0.06976849 -0.024880283 -0.021999728 -0.019329054 -0.06446505 0.06293407 -0.09519397
-0.020603914 0.0456535 -0.041902523 -0.084871486 -0.04154338 -0.029202428 -0.021196939 0.09152854
-0.06460431 -0.054501086 0.0413267 -0.033208933 0.061400883 0.11304068 0.08599254 -0.065810576
0.08449897 0.037189614 -0.08801479 0.08942807 0.03701319 -0.025446806 0.0890124 -0.0730085
-0.030345956 0.0069028162 -0.04057756 0.0056672385 0.10397698 -0.009196134 -0.038005766 -0.081735246
-0.011174392 -0.011851734 -0.031028515 0.016475419 0.10718508 -0.035370372 0.045749307 0.08808855
-0.02628971 -0.011232144 0.06876171 -0.063615896 -0.027433125 0.06465345 0.066235885 0.021239795
-0.024596285 -0.04965042 0.011293463 0.013560355 -0.010966509 -0.035358116 -0.0794891 0.044944473
0.0124541195 0.030277839 0.061528806 -0.04967915 -0.026403224 -0.052277893 -0.026465025 0.047225192
0.0043327473 -0.09912135 -0.08685738 0.03189289 0.028435959 0.0137772905 0.114622995 -0.07693077
0.056762595 0.008690975 -0.0827595 0.04622423 0.16009843 -0.01259018 0.0144255245 -0.11140456
0.065424964 -0.053312466 -0.09691603 0.095887475 -0.01784234 0.039232597 0.044088747 -0.04295262
-0.018515622 0.09055887 0.029916476 -0.058478106 0.06180445 0.026303902 -0.05106087 -0.09499339
0.08430859 0.057707753 -0.089294605 0.046406586 -0.04104613 -0.10452943 0.07834384 -0.011745155
-0.07995925 0.009430803 -0.06979697 -0.05012882 0.09575989 -0.034015395 -0.079836674 -0.05658783
-0.048070762 0.106559984 0.019988801 0.11050926 0.07900024 0.034680344 0.0029155512 0.08247792
-0.0015752418 -0.11379666 -0.038314503 -0.09212323 -0.013328076 0.03089093 0.08603668 -0.07473168
-0.06699077 -0.053347073 -0.08830081 0.09603344 -0.04034306 0.088603474 -0.076135516 0.040969532
0.014672455 -0.08443774 0.033788234 0.009807425 0.029315563 0.017250607 0.023421898 0.021795416
0.006650008 0.042414345 0.071791284 -0.0555671 -0.013346842 -0.0047135213 -0.03829282 -0.013019332
0.10049256 0.046188086 -0.05213508 -0.0023846738 0.028729787 -0.021396082 0.111124575 0.094861306
-0.01092399 -0.04461251 0.024812402 -0.04254247 0.02668324 0.052982796 -0.078101315 -0.021444466

network.4.bias f4 [21]
00000000: c630 0d3d 0e0b 87bd 6bec 8abd 51b9 dcba
00000010: c38c 603c 9f2d 8ebb 2bda b33d b658 163d
00000020: 2c8d e03c a37b a1bd 03ab afb9 e7a5 3cbd
00000030: 7161 363d 9c48 50bd 6bd8 a8b9 f1c8 e2bc
00000040: 3f92 66bd bf27 3e3d 9e31 aebc 3d61 85bd
00000050: 1960 1e3d
0.034470342 -0.065939054 -0.067833744 -0.0016839897 0.013705435 -0.0043389346 0.087818466 0.036705695
0.027411066 -0.0788491 -0.00033506015 -0.046056654 0.04452652 -0.050850496 -0.000322047 -0.027683707
-0.056291815 0.046424624 -0.021263894 -0.06512687 0.038665865
