deepQ_random/red.pt (torch, 248220 bytes, 10 tensors)

cnn.0.weight f4 [5, 5, 3, 3]
000000 83 0d 7a bd e7 3c 23 3b 46 79 49 bf 1f bf 0e 3e
       -0.061048042 0.0024908127 -0.78700674 0.13940094
000010 8f 11 7b 3d 65 1d 3e be 63 09 bc be b6 4e 29 3c
       0.061296042 -0.185659 -0.36725911 0.010333708
000020 e8 35 38 bf b1 0a cd bc f0 59 d5 3d 4f 7a 2e 3e
       -0.71957254 -0.025029512 0.10417545 0.17038845
000030 94 25 42 3e 44 bf b3 3d dc 09 38 3e 23 9b a6 3d
       0.18959647 0.087767154 0.17972511 0.08135059
000040 00 c3 9b 3d c8 f6 65 3d 4c 6a d4 3c e3 4c ce bd
       0.07605553 0.056143552 0.025929593 -0.10073259
000050 ca ce 20 be fa a5 36 bd 83 1c 6c bd b8 e9 a5 bd
       -0.15703884 -0.04459188 -0.05764438 -0.08101219
000060 ca 18 8c bd 69 e8 c8 bd 9b 21 9a bd 4e 43 1a bd
       -0.06840666 -0.09809954 -0.07525941 -0.037661843
000070 e9 30 8a be 53 73 fc 3d 4a 9b 0c 3e c0 38 3e 3e
       -0.2699044 0.12326684 0.13731113 0.18576336
000080 11 97 26 3e 79 55 5f be 40 4b a8 be 73 76 12 bd
       0.16268565 -0.21809949 -0.3286991 -0.035757493
000090 be 64 3c 3e 30 66 09 3f 9b 8a c2 3e ab c5 02 bb
       0.18397805 0.5367155 0.37996373 -0.0019954245
0000a0 b4 d9 86 3d 68 88 ad 3e 03 8b 86 3e fb 78 f8 3d
       0.06584492 0.33893132 0.26277933 0.1213245
0000b0 2d 4d b9 3e 1c d3 ae be 33 bd d6 bd a4 94 87 3f
       0.36191693 -0.3414544 -0.10485306 1.0592237
0000c0 de 5b 7b be 62 fd 45 bd cc 29 28 3f e0 9e e2 be
       -0.24546763 -0.048337348 0.65688777 -0.44261837
0000d0 88 88 fd 3e 8a 91 5e 3f dc ee 4a 3e ba 40 3c 3e
       0.49518228 0.86940825 0.1981768 0.18384066
0000e0 a2 00 ae 3d 8e a3 dc 3d 9b 93 33 3e d5 f8 5b 3e
       0.084962144 0.10773383 0.17536776 0.2148164
0000f0 f3 f1 da 3d d3 10 d0 3d 23 12 05 3e 5a 1f 3c 3d
       0.106906794 0.10159459 0.129952 0.045928337
000100 8f 27 14 be e2 1b 0a bd 44 65 2b 3c 0a 42 aa 3b
       -0.14468215 -0.033717997 0.010461155 0.0051958608
000110 58 2e ca bc cc b9 c1 bd 40 08 a4 bd 71 14 03 bd
       -0.024680302 -0.09459266 -0.08009386 -0.032001916
000120 1e 81 11 3d a9 67 fd 3c d1 79 49 3d b3 ce 89 3d
       0.035523526 0.030933218 0.04918844 0.06728878
000130 0f c8 ef 3b 90 3b ea 3e 26 21 83 bd 24 c1 f6 3d
       0.00731755 0.45748568 -0.06402807 0.120485574
000140 02 fd c1 bc 6d ea 83 bc 6f 3c 70 bb ea fd 9b 3d
       -0.023680214 -0.016102994 -0.0036657115 0.0761679
000150 d5 27 25 bd 0f 7e 82 bc 72 d1 b2 be b0 f0 58 3e
       -0.04032119 -0.01592925 -0.3492542 0.21185565
000160 f4 a7 07 be 19 85 7c 3e e5 18 85 be d3 4c 26 be
       -0.13247663 0.24660148 -0.25995556 -0.16240244
000170 7b 66 2b bf 9b ce c3 3d 13 02 30 bd ed e2 2a bf
       -0.6695325 0.09560891 -0.042970728 -0.6675251
000180 cf 82 f3 3d c1 19 df 3d 99 7b d6 be e0 ac a6 bd
       0.11890184 0.10893584 -0.41891173 -0.08138442
000190 70 1d b7 3d d3 15 70 bd 96 a5 e9 3c 4a f8 29 bc
       0.08941162 -0.058614563 0.02852134 -0.010374138
0001a0 5a 8f 86 bd 2e 42 f4 bd f7 3e bd 3d 89 bf a0 bc
       -0.06570311 -0.11926685 0.09240525 -0.019622581
0001b0 0a 3c 3e 3e fb 3b a7 3d df a7 cc 3d f8 c3 20 3e
       0.1857759 0.08165737 0.09992956 0.15699756
0001c0 2c 9f 20 3e bd 09 bb 3b 28 42 10 3e f0 66 18 3e
       0.15685719 0.005707948 0.14087737 0.14883018
0001d0 10 62 39 3e f0 73 e1 3d 30 cd 83 bd c5 2b 2e be
       0.18103814 0.110084414 -0.06435621 -0.17008884
0001e0 cf 63 81 bd 2a fc f0 bd 8f a3 2a 3e 5a c8 03 be
       -0.06317865 -0.117668465 0.16663955 -0.12869397
0001f0 f8 d3 dc 3d e9 35 3f be 8d b0 eb bd dc db bf 3d
       0.10782617 -0.18672909 -0.11508284 0.09368107
000200 82 70 3b 3e 45 a8 68 3e 2e 93 73 bc 52 0a a4 bb
       0.18304637 0.2272044 -0.014866633 -0.005006113
000210 3b 53 2c 3e 51 9b 00 3e fe 01 3f 3e d6 62 8c 3d
       0.16828625 0.12559249 0.18653104 0.06854789
000220 04 af 42 3e fa 1c 51 3d 5b b5 5e 3d 1c c6 b6 3d
       0.19012076 0.051053025 0.054372173 0.08924505
000230 28 66 a7 3d 87 53 22 bd 34 1f b0 3d d6 3d aa 3e
       0.08173782 -0.03963044 0.085997015 0.33250302
000240 38 d2 ea bb b6 8a db bb 8c d8 96 3d 81 4e 3b 3d
       -0.0071661733 -0.0066998852 0.07365522 0.045729164
000250 16 86 a8 3d 32 cc 82 3c e0 28 72 bd 19 84 f8 3d
       0.082287 0.015966509 -0.059121013 0.12134571
000260 ef cd b8 bc fb 8b 36 3d c5 2e c8 bd 59 e1 a1 bd
       -0.022559134 0.04456709 -0.097745456 -0.0790431
000270 16 aa 12 bd 62 20 e1 bc 04 b2 90 3b f7 9b c4 39
       -0.035806738 -0.027481262 0.0044157524 0.00037500236
000280 02 54 02 be e3 3c 29 3d 46 f4 a3 3e bc 19 36 3e
       -0.12727359 0.04131783 0.32022303 0.17783254
000290 dc 1c 5e be c1 d0 6b 3e 44 81 c8 bd 85 e7 76 bd
       -0.21690696 0.23028852 -0.097902805 -0.060279388
0002a0 ce 1b 58 be 14 c2 59 be 69 ca 12 be 40 2d 2d bd
       -0.21104357 -0.21265441 -0.14335026 -0.042279482
0002b0 ee e3 73 be 23 19 3e 3e 6b 03 ef 3d cb 02 a6 3e
       -0.23817417 0.18564276 0.11670574 0.32424006
0002c0 90 dc 97 3e 17 cb 4c 3e 5a 5b 2d 3e f7 d9 9c 3e
       0.29660463 0.19999348 0.16929379 0.30635044
0002d0 f6 7a 1e bf 7f bf 0a bf a3 4a 7f bf 16 02 97 be
       -0.61906374 -0.5419845 -0.9972326 -0.2949378
0002e0 0b 08 47 3d cf 25 08 bf 1d 72 cf be a5 bc 3a bf
       0.048591655 -0.5318269 -0.4051675 -0.729441
0002f0 98 71 72 bf 22 53 f4 bd c4 c6 16 bc 4d 58 3f bd
       -0.9470458 -0.11929919 -0.009202663 -0.04671507
000300 75 a2 f9 bd 93 ab 64 bd d3 b3 18 3b ca 6d 14 be
       -0.12189189 -0.05582769 0.0023300543 -0.14495006
000310 6a 35 3d bd 95 45 17 3d 77 b0 64 3e 82 bf af bd
       -0.046193518 0.036931593 0.22332941 -0.08581449
000320 00 25 c4 3d 8b 6e 1b 3c 1e 0a 2c 3e 21 42 ac bd
       0.0957737 0.009486805 0.16800734 -0.084110506
000330 55 2d 2b 3e 4e c6 4a bc 2b a3 11 bd 1b 80 51 3e
       0.16716512 -0.012376381 -0.035556 0.20459025
000340 37 1b 4d 3e 31 9d 4f 3e 22 c0 a8 3e d3 76 f9 3d
       0.20029913 0.20274808 0.32959086 0.12180867
000350 bc d2 c8 bd 98 e8 d3 3e f6 00 b0 3e 09 02 ec 3e
       -0.098058194 0.41388392 0.34375733 0.46095303
000360 eb 5c 00 3e ce e4 6c bd b7 96 21 bd e6 db 29 3e
       0.12535445 -0.057835393 -0.039450374 0.16587791
000370 07 9b 2c 3e 74 94 c3 3e e6 2f b3 bd 1b 0a 81 bd
       0.16856013 0.38199198 -0.0874937 -0.063007556
000380 80 a7 b4 bd
       -0.088210106

cnn.0.bias f4 [5]
000000 8d d6 3b 3d 2f fd 92 bd 87 35 10 3e 14 ee 16 3e
       0.04585891 -0.07177197 0.14082919 0.14739257
000010 4e a9 47 3e
       0.19498178

cnn.2.weight f4 [5, 5, 3, 3]
000000 07 24 1f bd d2 7c db bd b9 d1 51 3e 81 09 4f bd
       -0.038852718 -0.10717167 0.20490159 -0.050546173
000010 c9 d4 a7 bd e5 a3 29 3d 98 83 24 be 0d ea 70 3d
       -0.081948824 0.041416068 -0.16065824 0.05881696
000020 85 31 c5 3d 7a d6 43 be ae 9f 2d be 71 ed 21 be
       0.09628586 -0.19124785 -0.16955444 -0.15813233
000030 98 a1 31 bd 09 df 9e bd 04 5e 77 be f6 c1 bf bd
       -0.043367 -0.07757384 -0.24156958 -0.09363167
000040 d4 6e 67 be ef e0 78 be 7b 36 50 bd 30 04 3b 3e
       -0.22600871 -0.24304555 -0.050833207 0.18263316
000050 68 1f 51 3e 98 4e b1 bc 50 83 dc 3c e1 86 b9 3d
       0.20422137 -0.021643922 0.026918083 0.09058929
000060 21 c3 4b 3d a6 c8 3e bd 56 7b 0d 3e d6 61 b7 3d
       0.049746636 -0.046578072 0.1381658 0.089542076
000070 1c fa 07 bc 58 e5 2b bd 04 bc 06 3e e1 da 00 3e
       -0.008299377 -0.041966766 0.1315766 0.12583496
000080 86 35 cd bd 72 ad 14 3e 65 ca fc 3c 65 ad 01 be
       -0.100199744 0.14519289 0.030858228 -0.12663801
000090 35 5c 2d 3e 50 87 93 bd ff bc 48 3e 4e 57 53 bd
       0.16929705 -0.07203543 0.19603346 -0.051596932
0000a0 fe 43 aa 3d 7c a1 bb 3d 20 a9 f1 3d a2 5a 2f 3e
       0.0831375 0.0916166 0.11799836 0.17124417
0000b0 d1 fd f0 3b 5f 92 c8 3d 24 68 06 3e 7a 2a 06 3f
       0.007354476 0.09793543 0.13125664 0.52408564
0000c0 67 9f db bd 90 5f 08 3e 63 14 e3 3e 04 f1 01 3f
       -0.10723763 0.13317704 0.4435149 0.50758386
0000d0 f5 d1 f0 3e cc 35 b4 3e 4c 59 a5 be 1c 81 70 3c
       0.47035185 0.35197294 -0.3229469 0.01467922
0000e0 2d fe ca bd e1 5e 43 3e 6d c6 66 bd 5b 39 f8 3d
       -0.099117614 0.19079162 -0.056341577 0.12120315
0000f0 34 a6 f8 3d db f0 3d be 34 34 09 3e e9 95 09 bd
       0.12141076 -0.1854891 0.1339882 -0.03359023
000100 6d 43 e0 3d 7b c0 c5 bd f3 9c e5 bd 62 1f 16 3d
       0.109503604 -0.09655853 -0.11211576 0.036651023
000110 ad 8f 09 be 5a b9 3e bc fe 89 1b bc bb f5 cd bd
       -0.13433714 -0.011640871 -0.009493349 -0.10056635
000120 6b 86 03 3e 3f bf 04 3e fd 72 ec 3d 2f a1 92 bd
       0.12844245 0.1296358 0.1154537 -0.071596496
000130 75 42 1a be c7 13 78 3e b5 34 c8 3d 3a 45 45 3e
       -0.15064414 0.24226294 0.09775678 0.19264689
000140 cd 81 e1 3d 71 67 17 be ea 9d 44 be 50 3f ee bd
       0.11011086 -0.14785554 -0.19200864 -0.1163317
000150 94 64 80 3e 62 b1 bb bd 35 79 c2 bd 4b 47 8f bc
       0.25076735 -0.091646925 -0.09495775 -0.01749005
000160 c1 3a 5e 3e e1 d2 cf 3d f0 74 93 3d 10 e5 92 3d
       0.217021 0.10147644 0.072000384 0.071725965
000170 fb ce b8 3e 4c fb 59 3d bc db 8d 3e 7b 88 b9 3e
       0.36095414 0.05321817 0.27706707 0.3623694
000180 25 2d ab bd 00 a0 10 bd 2b f7 af 3e ef 00 2b bf
       -0.0835822 -0.035308838 0.34368262 -0.667983
000190 49 11 e2 3d 92 87 17 be 18 35 26 3e b3 e5 08 be
       0.11038453 -0.1479781 0.16231191 -0.13368873
0001a0 76 f6 a1 3d 81 31 b5 be 9b 77 5a bd 2b b4 8f be
       0.07908337 -0.3538933 -0.05333672 -0.28067145
0001b0 d8 84 21 be ac 3c 65 bd 67 92 d7 bd 0a 08 06 be
       -0.15773332 -0.055966064 -0.10525971 -0.13089004
0001c0 4c 7a 0f be 87 8d 19 3e e1 19 10 be 0e 76 30 bd
       -0.14011496 0.14995395 -0.14072372 -0.043081336
0001d0 b7 d2 f1 3b 69 d7 bb ba f2 cf f1 bc 56 54 f3 bc
       0.0073798555 -0.0014331165 -0.029518101 -0.0297033
0001e0 72 51 f3 3d 03 ab 16 3d 96 29 76 bd 0a 05 30 bd
       0.11880769 0.036784183 -0.060098253 -0.042973556
0001f0 ee bc 9e 3e c7 1a 57 3e 3d a1 e4 3e 6c ba f6 3d
       0.31003517 0.21006308 0.44654265 0.12047276
000200 86 dd a3 3e 2a 0f dc 3c 3a 63 d2 bd 91 d2 3f be
       0.32004946 0.0268627 -0.10272832 -0.18732668
000210 96 3a 98 3e ea 26 3e 3d 34 8a 76 3e b8 d2 32 3d
       0.29732198 0.04642383 0.24076158 0.04365799
000220 0a 45 fa bd 99 ce 09 bd 69 df 82 3d f2 18 e5 3b
       -0.122201994 -0.033644293 0.06390268 0.006991499
000230 8a d0 e2 bd ba c3 6e 3d 4a 7c 00 bb 2f 10 bb bc
       -0.11074932 0.05829213 -0.0019605332 -0.022834865
000240 5a 13 31 3d 05 0c 0c 3e c9 9c 66 3c d9 f8 14 3e
       0.043231346 0.1367646 0.014075466 0.14548053
000250 a1 51 e9 3d 13 76 94 3d 85 f7 a4 bd 48 29 9d bd
       0.113925226 0.07249083 -0.08055023 -0.076738894
000260 9c 6d 4d 3e 83 10 b8 bc 1f 95 7d bd 45 36 29 3e
       0.20061344 -0.02246881 -0.06190979 0.16524608
000270 11 6c ef 3d 23 80 bf 3d 17 88 52 ba 1b 78 dd bc
       0.11690534 0.09350612 -0.0008031143 -0.02703481
000280 95 0a 15 3d 23 49 4b 3e 20 a3 ea 3c 97 01 f4 bc
       0.036387045 0.19852118 0.028642237 -0.029785914
000290 54 9a 54 3e c4 ba 3e 3c e9 bc 03 3e b2 3f 62 3d
       0.20761997 0.011641208 0.12865032 0.055236526
0002a0 78 e2 33 3e 6f 01 ff 3d 0d ab 73 bd 06 ad 0a 3e
       0.1756686 0.12451445 -0.0594893 0.13542566
0002b0 3e 8f 35 3d a0 e8 1c be 4e 57 a2 bd 80 10 55 be
       0.04432606 -0.15323114 -0.07926808 -0.20807076
0002c0 3c 70 bb bd 85 7b 06 be 08 e8 e7 3d 1d 0c b2 bd
       -0.091522664 -0.13133056 0.11323553 -0.08693717
0002d0 f5 57 09 3e 7f 99 19 3e 07 b4 85 3e 21 78 ac bd
       0.13412459 0.1499996 0.26113912 -0.0842135
0002e0 46 0d 30 3c a7 ab 09 3e f9 a3 08 be b3 e7 11 3e
       0.010745352 0.13444386 -0.133438 0.14248542
0002f0 25 08 d9 bd 2a 6b 8b bd 19 fd 8a be f2 ed 0c 3e
       -0.105972566 -0.06807549 -0.27146223 0.13762644
000300 03 19 6d be f2 8c 94 3e 14 1c 6c be 3d 0d d7 3d
       -0.23154072 0.29013783 -0.23057586 0.10500572
000310 5a 93 e6 bd b9 a5 6e be c7 27 ae 3d 21 f0 59 3c
       -0.11258574 -0.23305406 0.08503681 0.01330188
000320 ef f6 8d 3d f5 b3 aa bd ea 43 03 3e 62 2f 5e 3d
       0.069318645 -0.08335105 0.12818876 0.054244407
000330 43 e4 ae 3d e7 86 6d bd f7 e5 c8 3d 30 55 e9 bb
       0.08539631 -0.05798998 0.09809487 -0.007120751
000340 41 bd 5f 3d 44 88 69 3d 41 11 46 be ea ca f2 3c
       0.054623846 0.05701472 -0.1934252 0.029637773
000350 79 77 b5 be 86 03 ec 3c d3 58 00 be fd cd 2b bd
       -0.35442713 0.028810274 -0.12533884 -0.041944493
000360 7a 9f 04 bd e7 26 08 3e 3e 8d b5 3d 22 85 14 be
       -0.03237865 0.1329609 0.088648304 -0.14503911
000370 7f 2f c9 3d 59 4d 34 3e 9f 7d 6c 3e 36 97 1e 3c
       0.09823512 0.17607631 0.23094796 0.009679606
000380 fb c4 cf 3e
       0.40579972

cnn.2.bias f4 [5]
000000 f3 31 0e 3e 87 3e 1f be a8 20 18 be 7e ef 00 3e
       0.13886242 -0.15551196 -0.14856207 0.12591359
000010 6d e7 c9 bd
       -0.09858594

network.0.weight f4 [120, 405]
000000 11 a5 48 bc 28 38 9b bc 4b 6e 0b 3d a2 de e6 bc
       -0.012246386 -0.018947676 0.03404073 -0.028182331
000010 48 92 bd 3c 48 d0 5d bd 23 97 84 bd 17 4b a3 bc
       0.023141041 -0.05415371 -0.064741395 -0.019933267
000020 9a 5a 1f bd e0 fc f1 bc cc 44 17 bc 05 67 70 bd
       -0.038904764 -0.029539526 -0.009232711 -0.058691997
000030 8f d2 8f 3c 5f e5 36 bd ba a1 cd 3c 6c 46 d3 b9
       0.017556457 -0.04465234 0.025101531 -0.00040297525
000040 c9 78 81 bc ba 18 4c bd 21 ed e5 bb 0c 38 31 bd
       -0.015804665 -0.04982827 -0.0070167934 -0.04326634
000050 60 c8 d7 3c 1f 05 69 bd 88 46 e3 bc 26 5b 2f bd
       0.026340663 -0.05688965 -0.027743593 -0.042811535
000060 66 47 41 bd 70 0f 00 bd 46 d5 4d bc 93 3d 46 bc
       -0.04718723 -0.031264722 -0.012563055 -0.012099641
000070 ca 0f d3 bb 5c 51 12 3c a6 76 0f bd 7e 2a 30 bd
       -0.006441091 0.00893053 -0.03502526 -0.043009274
000080 27 c1 d3 bc c7 00 f9 3c 44 5a 2f bc f1 b4 37 bd
       -0.025848938 0.030395878 -0.010702673 -0.044850294
000090 f3 59 be 3c c5 dd b2 bb a6 c1 03 bc d3 75 c8 bb
       0.02323625 -0.005458566 -0.008041775 -0.0061175614
0000a0 4f 8e da 3c bb 46 1a bd d3 ee ae 3c 8b e1 23 3d
       0.026679186 -0.03766511 0.021354115 0.040010016
0000b0 42 d6 8c bc 94 f5 76 3c a6 17 1a 3c ea f2 ed 3c
       -0.01719201 0.015073199 0.009405052 0.029046495
0000c0 fe f3 e8 bc b2 83 21 bd 2e 46 da bc 4e 04 4f bd
       -0.028436657 -0.039432235 -0.026644792 -0.050541215
0000d0 c4 44 b7 bb 2a fd 36 3d 4c 8a f5 3c fc fd a5 3c
       -0.0055929143 0.04467503 0.029973172 0.02026271
0000e0 b2 bd 3d bc dd be 84 bc 1e f5 89 3c f1 63 3b 3c
       -0.011580871 -0.016204292 0.016840514 0.011437402
0000f0 4f dc a6 bc c1 85 9f bc ef e4 77 3c 0a ed 9a bc
       -0.020368723 -0.019472959 0.015130266 -0.018911857
000100 60 cc 51 bd 9b e9 27 bd 5f 90 bd 3c e0 f2 d8 3c
       -0.051220298 -0.040994268 0.02314013 0.026483
000110 f1 76 10 bd c5 23 dd bc 3c 41 ee bc ac ed b0 bc
       -0.03526968 -0.026994595 -0.02908384 -0.021597706
000120 d3 43 e6 3c d0 9c 75 bd f3 27 c6 3b d4 05 6d bd
       0.028108513 -0.059964 0.006047243 -0.057866886
000130 b8 ec 23 bd 9e e8 db bc db d1 2d bc 83 64 a6 bc
       -0.040020674 -0.026844319 -0.0106091155 -0.0203116
000140 7b 6b 10 bd f9 09 e3 bc b2 94 1a bd 95 a4 50 bd
       -0.03525875 -0.027714716 -0.037739463 -0.050938208
000150 1c 12 33 bd 67 b8 23 3d 4a 5a 17 bd 9f f9 6e bd
       -0.043718442 0.03997078 -0.03695134 -0.058343526
000160 0e f2 74 3c 32 03 a4 3b 4b be e8 3c 6a d3 67 bd
       0.014950288 0.0050052637 0.028411051 -0.056598105
000170 ae f0 83 bd 61 9a 4e bd 0b bf 32 bd 89 69 67 bc
       -0.064423904 -0.050440196 -0.043639224 -0.014124283
000180 7a c5 5b 3c 1a e3 4a 3c db 52 80 bd 91 78 84 3c
       0.013413781 0.012383247 -0.062658034 0.016170772
000190 e2 6c 39 bd 38 b5 16 bb 7b dd 99 bb 5d 7d ce bb
       -0.045269854 -0.0022996198 -0.004695592 -0.0063015656
0001a0 17 76 22 3c cb c9 12 bc b8 92 8d 3c 95 30 e8 3b
       0.00991585 -0.008959244 0.017281875 0.0070858696
0001b0 20 9f 12 3d 49 a2 06 bc 10 56 39 bd 5e 65 1d 3c
       0.035796285 -0.008217403 -0.04524809 0.009606687
0001c0 c9 7f 20 bc 7e fb 13 3d bd 0e 98 bc 24 37 04 3d
       -0.009796091 0.036128514 -0.018561715 0.03227915
0001d0 d4 e6 2b bd 91 29 a2 3c ce f7 55 bd c9 00 87 3c
       -0.04196818 0.019795211 -0.052238278 0.016479867
0001e0 9a 0f 1f bc 20 ca 60 3c c4 3e 60 bd 60 56 7d bd
       -0.00970831 0.013720065 -0.054747358 -0.06184995
0001f0 6b dc 00 3c 2e 0a f7 bc 8d 33 a0 3c 65 2c 42 bd
       0.007865052 -0.030156221 0.019555831 -0.04740562
000200 49 36 06 bd 40 5e 9c bc db a7 6b 3c 6c 25 ab 3c
       -0.032766614 -0.01908791 0.014383282 0.020891868
000210 34 20 d2 bc 3a 96 ee bc 59 e4 95 bc b2 cf ad 3c
       -0.025650121 -0.029124368 -0.018297361 0.0212172
000220 60 d5 6c bd f4 6e f1 bc 4e d4 83 bd 9f 3b 50 bc
       -0.057820678 -0.029471852 -0.06436978 -0.012709527
000230 7a 60 af bc 11 a0 15 3c 5a 21 cd 3c 83 b7 4b bd
       -0.021408308 0.009132401 0.025040317 -0.049735557
000240 ee 8c f2 bc a9 a0 95 bc 40 3a b3 bc 00 7b 94 bc
       -0.029608216 -0.018265085 -0.021878362 -0.018125057
000250 a4 5d 2e bd 95 b3 c8 bc 7e 2f 96 bc a6 c3 09 3d
       -0.04256977 -0.024499694 -0.018333193 0.03363385
000260 20 65 6b bc a9 8f e6 3c f2 ce 4b bd fa d1 92 bc
       -0.014367372 0.028144674 -0.049757905 -0.01792239
000270 db fb 3c bd ce 8e 80 bd 2f 40 05 bb 14 cd f2 bc
       -0.046138626 -0.06277238 -0.0020332446 -0.029638804
000280 e7 a1 02 3d c0 14 21 3d f6 b7 74 bd 1e 01 21 bc
       0.031892683 0.03932643 -0.05974575 -0.0098269265
000290 0e d2 9f bc ec c5 1e bd 3b 1b 1d bd ce a5 14 bd
       -0.019509342 -0.03876297 -0.038356047 -0.036290936
0002a0 1a 14 2a 3c 98 f2 50 bb 26 b0 a2 3c b1 fc 0d bc
       0.010380769 -0.0031882878 0.019859385 -0.008666203
0002b0 ea ea 9c 3c 9f c9 5a bb ca 9b b2 bc c3 59 0d bb
       0.019154985 -0.0033384336 -0.021802802 -0.0021568395
0002c0 e5 fe 55 bd ce 85 7c bc db fc 1a bd 1a 95 13 bd
       -0.05224504 -0.015412761 -0.037838798 -0.036030866
0002d0 e5 62 06 bd e0 e1 bd bc 65 09 27 bd 73 03 00 bb
       -0.032809157 -0.023178995 -0.040780444 -0.0019533306
0002e0 27 13 23 bc 8a 9b cb bc ab a2 0c 3d 90 07 cb 3c
       -0.009953297 -0.02485444 0.03433482 0.02478388
0002f0 2a 6b a2 3b db 74 0a bd ea 76 34 bc 19 1f 5c bd
       0.0049566226 -0.03380285 -0.011014679 -0.053740595
000300 52 bc bd 3c 5a 20 3c 3d 98 bc b5 bc 9c 1b e6 3c
       0.023161087 0.04592929 -0.022184655 0.028089337
000310 2f c4 21 3d 1f 53 78 bc 4c 75 02 bd e4 98 70 bc
       0.039493736 -0.015156536 -0.031850144 -0.014684889
000320 fa f2 17 bc bb f3 59 bd 74 c2 30 bc 38 51 ad bc
       -0.009274239 -0.053210955 -0.010788549 -0.021156892
000330 dc 48 99 3c 74 be 87 bc 59 98 df 3c cb bd e8 3c
       0.0187115 -0.016570307 0.027294325 0.028410813
000340 9d 37 fe bc 6d ce 0b bc ac 02 27 bc b4 22 e3 bc
       -0.031032378 -0.008533102 -0.010193508 -0.027726509
000350 dd 2c f6 bc 5b 35 85 bc 2f 35 32 3c fb 92 a7 bc
       -0.03005069 -0.016260793 0.010876938 -0.020455828
000360 b8 78 10 bb e6 ee 49 3c ff 16 05 3b 07 3f 9a 3a
       -0.002204461 0.012325024 0.0020307896 0.0011768051
000370 42 e7 ba 3b e7 0b 44 bd fd 49 23 bd 3d fd 31 bd
       0.0057038376 -0.047862913 -0.039865483 -0.043454397
000380 a0 56 02 3d 5b a3 7d bd 73 74 4a bd 8e ec 9f 3c
       0.031820893 -0.061923366 -0.04942746 0.019521978
000390 d6 27 6d 3c ad 3a 83 bd 9d ba 95 3c 5d 53 ae bc
       0.01447483 -0.06407676 0.01827746 -0.021279985
0003a0 56 90 34 3c 6b 17 f5 bc 34 0c c7 bc bc b3 02 bc
       0.0110207405 -0.029918393 -0.024297811 -0.007977422
0003b0 be 70 a2 3c 16 36 44 3c ff 67 23 bd 71 a1 0d bd
       0.01982915 0.011975786 -0.0398941 -0.03457779
0003c0 f1 2f 00 bc f2 bc 7e 3c eb d4 08 3d ab 9d 84 bd
       -0.00782393 0.015547978 0.03340618 -0.06475385
0003d0 a6 9d 9e bc af ed 52 bc 5b 8b 26 bd 18 0d bc 3c
       -0.019362282 -0.012874051 -0.040660243 0.022955462
0003e0 85 89 e2 bc da 00 81 bd 63 1f 3a bd 16 52 7e bc
       -0.027653465 -0.062989905 -0.04544009 -0.0155225005
0003f0 28 33 56 bd 98 93 72 bb 90 89 08 3d 83 b4 5a bc
       -0.05229488 -0.0037014242 0.033334315 -0.013348701

network.0.bias f4 [120]
000000 3a c5 64 bc d6 ef 35 3d 0b 40 dd bc 9e 73 22 bd
       -0.013963038 0.04441818 -0.027008077 -0.039661042
000010 21 00 53 be 6b c8 a5 3d 68 e7 ac 3d 05 ad 93 bc
       -0.20605518 0.08094867 0.08442575 -0.018026838
000020 9b 31 8a 3d cd 0f 13 bd 3a 4e 28 bc 9a 28 1f bc
       0.06747743 -0.03590374 -0.010272557 -0.00971427
000030 ff d2 0c bd dd 35 4a 3c 6c 3a 62 bc e3 4c 04 bd
       -0.03438091 0.012341944 -0.013807874 -0.032299887
000040 15 93 d9 bc af 8e 3b bd 70 f4 de 3d 68 73 09 3d
       -0.026559392 -0.04579037 0.108864665 0.033557326
000050 9d b5 bd bc 7f 00 67 3d a8 17 da 3b 4b 72 67 bd
       -0.023157889 0.056396957 0.006655652 -0.056505483
000060 4d 1b 1c bd 73 82 5f be 35 c7 6c 3c f9 24 a5 3d
       -0.038111974 -0.21827106 0.0144517915 0.080636926
000070 b2 14 9c ba 95 41 c7 3c 11 dd 2f bd 74 eb 55 3b
       -0.0011908023 0.024323264 -0.042935435 0.0032641562
000080 6a 56 ed 3d a6 77 05 3e 08 66 88 3c d4 2a 10 3d
       0.11588748 0.13033924 0.016650215 0.035197094
000090 24 ac cf bc df 71 2a 3d 16 68 9c be c9 b6 b0 3c
       -0.025350638 0.041612502 -0.3054816 0.021571534
0000a0 86 f0 bd bb 37 fb c8 3d 63 f7 8e 3c ae 2f 64 3d
       -0.005796495 0.098135404 0.017451948 0.055709533
0000b0 5f 10 56 bd b1 e1 d5 bb a0 db 6c bc 33 c3 a5 3d
       -0.052261706 -0.0065271487 -0.01445666 0.08093872
0000c0 83 ba 26 3e 03 fc 78 3b 5a 68 7c 3c 8b 2c aa bc
       0.16282086 0.0037992008 0.015405739 -0.020773193
0000d0 ea 60 3f bd 12 e1 49 bc 1f e9 cb 3c 82 9d 56 bd
       -0.046723284 -0.012321727 0.024891434 -0.052396305
0000e0 b8 c4 17 bc d8 93 37 3d 48 e9 f2 3c dc f1 1b bd
       -0.00926321 0.04481873 0.029652253 -0.038072452
0000f0 6f e1 b2 3d 50 5f 9c 3d af 21 14 3d 38 cb f1 bc
       0.08734404 0.07635367 0.036164936 -0.029515848
000100 58 f3 60 3d a2 68 c1 bc a9 76 1b bc ca 69 87 bc
       0.05491957 -0.023609463 -0.00948874 -0.016529936
000110 59 d6 39 3c 48 5d 61 bd a1 17 22 3d c1 2b b9 3c
       0.011342608 -0.0550206 0.039573316 0.022603871
000120 0b 47 71 3d 9f 6f be 3b 44 e3 4e bd ab 71 28 bd
       0.058905642 0.005811646 -0.050509706 -0.041124027
000130 68 ca f4 bc 89 d8 cd 3d 70 db 7c 3d 0e 93 b7 bc
       -0.029881671 0.100510664 0.06173271 -0.022408988
000140 8a 5d 0c 3b 68 86 f9 3d 10 c1 e1 3c ed ff d8 3d
       0.0021418058 0.12183839 0.02755788 0.10595689
000150 2a bb 78 3d 83 ed 16 bd fb 9b 5b 3d 6b d4 3d bd
       0.06072537 -0.036847603 0.05361555 -0.046345156
000160 22 2b 4b 3c 51 cd f8 3d 84 f3 2f bb 82 d7 27 bd
       0.01240042 0.12148536 -0.0026848027 -0.04097701
000170 32 4d 83 3d 20 70 81 3d f3 92 9a bc 86 b3 88 3c
       0.06411208 0.06320214 -0.018868899 0.016687166
000180 f9 0d 25 3d aa 68 e3 3c e6 84 e4 3b 90 9b f8 bb
       0.04029653 0.027759869 0.0069738505 -0.007586904
000190 89 67 97 3c 5e c1 54 bc 98 8a 38 bd b8 87 8d bb
       0.018481987 -0.012985555 -0.04505405 -0.0043191575
0001a0 42 4a ac 3d e4 46 2a bd 51 e1 78 bc 9c 9f e5 3d
       0.08412601 -0.041571513 -0.015190438 0.11212084
0001b0 62 86 3c bd 2d e9 3b 3c a0 ec e5 3c 81 46 a7 3d
       -0.046026595 0.011469168 0.028066933 0.081677444
0001c0 af ee 3c bd 5e 2b bc bb d0 09 f4 bc a2 29 2e bd
       -0.046126064 -0.0057424745 -0.029789835 -0.042520173
0001d0 63 9b 58 bc 02 5f 3b 3d d3 ce 20 ba c9 7b 13 3d
       -0.013220641 0.045744903 -0.0006134335 0.036006723

network.2.weight f4 [84, 120]
000000 fc 75 85 bd a0 58 8f bd 9a 5d b7 3c 6b b7 a0 bd
       -0.06516644 -0.06999326 0.0223835 -0.07847484
000010 24 06 f6 3c 96 51 a5 3d 20 79 9a 3b 21 3b 1a 3b
       0.030032225 0.08072202 0.0047141463 0.0023533779
000020 dd 95 82 3c 82 6b d5 bb 5b 45 70 3d 39 db a1 bd
       0.015940601 -0.00651306 0.058659893 -0.079031415
000030 b1 79 af bc ea 75 aa bd da 4a 9c bd 1b 14 75 bc
       -0.021420332 -0.083232716 -0.07631464 -0.014958407
000040 2a e8 a7 bd e7 51 81 3c ac c9 95 ba 41 5b 1c bd
       -0.08198579 0.015786124 -0.0011427901 -0.038172964
000050 8b d5 62 ba 53 e1 a1 3d c3 0a 4d 3d 07 e9 ac bd
       -0.0008653036 0.07904305 0.05005909 -0.08442884
000060 5a d6 a5 bd 52 36 59 bd 7e 21 14 3d a1 a1 28 bd
       -0.08097525 -0.05303032 0.036164753 -0.041169766
000070 fb a4 2a 3d 63 2d ca bd a7 96 a4 3b 19 3d 40 bc
       0.041661244 -0.09871938 0.005022842 -0.011733317
000080 7d 4c 5c 3d a2 92 8a bd cb d8 92 bd 15 bb 7c bd
       0.053783882 -0.06766249 -0.07170256 -0.061701853
000090 f7 c7 30 bd b2 d3 a4 3d f1 61 71 bb e6 fb 9a bd
       -0.04315945 0.0804819 -0.003683206 -0.07567577
0000a0 2c a6 a4 bc a1 4f 21 bd 76 90 10 bd 7e f2 80 bd
       -0.020098768 -0.03938258 -0.03529402 -0.06296252
0000b0 61 5b be bc 66 d9 09 3b a4 bd 9f 3d 97 2f c1 bd
       -0.023236932 0.002103412 0.07799843 -0.09432905
0000c0 6e a8 53 3c 90 73 9e 3d 1b 75 f2 3c 38 44 8e 3c
       0.012918575 0.077368855 0.029596856 0.017366514
0000d0 73 c8 a8 bd 81 c3 a2 bd 4d 91 91 3d fe c2 11 3d
       -0.08241358 -0.07947446 0.07107792 0.03558635
0000e0 25 4e b5 3d 6f 2d 96 3d 5c b2 56 3d 3d ed 41 3d
       0.088527955 0.073328845 0.05241619 0.04734539
0000f0 b9 6d 9a bd 7b 85 3f 3c 36 34 f9 bc ff 8a 10 3c
       -0.07540459 0.011689539 -0.030420404 0.008822202
000100 3b 0c aa 3c cd 2f 0d 3c 2a 49 87 3d e8 1d 8e 3d
       0.020757785 0.008617354 0.06605752 0.06939298
000110 3b 24 e9 3c 60 a4 62 bd 4c 8e b0 bd 88 fe 91 bd
       0.028459659 -0.05533254 -0.08620891 -0.07128626
000120 a1 16 be bd 71 16 8e 3d fb 9e 06 3d f5 a8 67 3d
       -0.0928166 0.06937874 0.03286646 0.056557614
000130 d2 ae c0 bc 88 e6 43 3d cf 87 09 bd cf 1a 0b 3d
       -0.02352086 0.047827274 -0.033576783 0.033961114
000140 37 62 19 3d 2c 9a a2 bd 6a 60 87 bd 72 90 13 3d
       0.03744718 -0.07939562 -0.066101864 0.036026426
000150 bc ea c1 bc 37 ac 69 3d 8c 1a cb bd a4 66 a9 bd
       -0.0236715 0.057049002 -0.09917173 -0.0827153
000160 ef 5a 31 bd bb e5 d4 bd 5a 6f c3 3b 90 14 33 3d
       -0.04329961 -0.1039538 0.005964202 0.04372078
000170 4d 1d d5 3b 4b bb 00 3d aa 72 0f bd ab ee 61 3d
       0.006503737 0.031428616 -0.03502146 0.055159252
000180 f3 97 0d bd ab 6a ae bd c7 f8 7b bd b1 4b 43 3d
       -0.03456874 -0.08516439 -0.06151655 0.047679607
000190 39 65 96 3d 01 34 85 bd bf 1f ad 3c 0f 87 f3 bc
       0.073435254 -0.065040596 0.021133302 -0.029727487
0001a0 5a c3 44 3d f1 ed 80 3c 6b d4 b1 bd ce a6 8e 3d
       0.048037864 0.01573846 -0.08683094 0.06965409
0001b0 af 63 13 3d df eb bd bb 29 14 af 3d 22 8e 47 bc
       0.035983738 -0.0057959403 0.08548767 -0.012179883
0001c0 50 06 e6 3c 8d ad 0e 3d 97 bf 2d bd 6d f1 59 bd
       0.028079182 0.03483348 -0.042419042 -0.053208757
0001d0 e4 45 a5 3d 84 0b 33 3d 9b 39 4e bd c6 ba 4a bd
       0.08069971 0.043712154 -0.050347906 -0.049494527
0001e0 26 a4 97 bd 75 3a a8 3d 6d c9 b4 bd 15 dd 32 3d
       -0.07404356 0.08214275 -0.088274814 0.04366787
0001f0 0a d0 16 3d 36 90 50 3c d9 a6 89 3d 6b b8 cb 3c
       0.036819495 0.012729695 0.06721277 0.02486821
000200 89 e6 34 3e ea be 4c 3c fc 55 ab 3c 48 14 9a bd
       0.17666067 0.012496689 0.020915024 -0.075233996
000210 18 38 79 3b 57 b8 a0 be 71 d2 01 bd 79 7c 9f bd
       0.003802782 -0.3139064 -0.031694833 -0.07787413
000220 cd af b3 3d 5c 02 bd bc ea 2e 27 3c 3c 45 81 bd
       0.08773766 -0.023072414 0.010204056 -0.063120335
000230 a7 f6 9c bc 1d fb 03 be a9 4d 02 3d d5 c5 23 3e
       -0.019160582 -0.12888761 0.031812344 0.15993436
000240 0f 05 88 bc e9 78 09 be ab 4c a1 3d 6c e9 24 be
       -0.016603975 -0.1342503 0.078759514 -0.16104668
000250 63 39 59 bd 75 99 9e bd 9d f8 b7 bd 53 38 bf bb
       -0.053033244 -0.07744113 -0.08982966 -0.005835572
000260 2f 80 bf 3d 87 c2 9d bd e5 e7 01 bd df e3 ae bd
       0.09350621 -0.07703119 -0.031715292 -0.08539557
000270 63 99 8c 3c 32 f1 db 3d 0a 67 90 be cb ca c9 3d
       0.017162984 0.10739364 -0.28203613 0.09853133
000280 f3 11 f6 bc 4a b8 9b bd 0f 95 49 bd 0c 38 80 3d
       -0.030037856 -0.0760351 -0.04921442 0.0626069
000290 50 f8 52 3d c7 10 a2 3d 0f ac 8d 3d 68 0f 7d 3d
       0.05150634 0.07913356 0.06917583 0.06178227
0002a0 c6 fc b6 3d a2 23 4e 3d 9f a5 37 bd 54 1e 91 bd
       0.089349315 0.05032695 -0.044835683 -0.07085863
0002b0 62 25 28 bc f8 6c 91 bc 4f 79 9f bc 26 1e eb bd
       -0.010262819 -0.017752156 -0.019467024 -0.1148036
0002c0 22 fb bd 3d c5 cf 30 bd 3e 2f bb be 27 48 1b be
       0.092764154 -0.043166894 -0.3655948 -0.15164243
0002d0 03 0e ca 3d 7e e5 91 bc 95 a1 ce be ed 0d fd bb
       0.09865954 -0.017809626 -0.40357652 -0.0077226073
0002e0 7a 77 fe 3d bb 79 06 bd fb 4a 92 3d d7 45 5a bd
       0.12425132 -0.032830935 0.07143208 -0.05328926
0002f0 bd aa 8c 3d ba 1a 11 3d 26 32 f7 bc b7 aa c2 bc
       0.06868503 0.03542588 -0.03017528 -0.023763044
000300 2e 61 52 3d 8a 37 30 3e cf 63 1d be ad 30 9c 3c
       0.05136221 0.17208686 -0.15370105 0.01906618
000310 f4 5f 87 bd 6f ad f8 3d 8d cb 81 3c 02 58 93 bd
       -0.066100985 0.12142455 0.01584413 -0.071945205
000320 77 bd 83 3d 98 c2 d0 3d 46 da 85 bd f9 b2 f7 bc
       0.06432622 0.10193366 -0.06535773 -0.030236708
000330 48 24 06 3e bf 39 1d 3d a8 cc 16 3d 02 d4 88 3d
       0.13099778 0.03838515 0.03681627 0.06681062
000340 f3 fb 82 3d b3 c1 84 3d 32 80 c7 bc eb f4 7a bd
       0.06395712 0.06482258 -0.02435312 -0.06126873
000350 26 62 23 bc 0e d0 24 3e fb 8c da 3d e6 1b 96 bd
       -0.009972131 0.16094992 0.10671421 -0.0732954
000360 df 64 9e 3d c4 cc b7 bd 33 9a ea bd 6c 24 a7 3d
       0.077340834 -0.08974603 -0.114551924 0.08161244
000370 76 9b 14 bc 63 0b 7a bd 2f 78 86 bc d3 7b 78 3c
       -0.009070268 -0.061046015 -0.01641473 0.015166241
000380 d9 a7 0c bb a8 e1 57 3d 8e 36 59 bc ad e1 1a 3d
       -0.002146235 0.052705437 -0.013257636 0.037812877
000390 ee 29 82 bd 29 b6 bc 3d ee 66 61 bd 2b 13 8c 3d
       -0.06355654 0.09214432 -0.055029802 0.068395935
0003a0 a3 8f 0d bd 97 fb dc bc a6 c1 bc 3d 53 50 e0 3c
       -0.03456081 -0.026975436 0.09216623 0.027382052
0003b0 c0 0c da 3d 8e c9 a9 3d 94 06 46 bd 69 9f d4 3b
       0.10646963 0.08290397 -0.048346117 0.0064887297
0003c0 ea 60 2c bd cf b5 e3 3b c3 44 b0 bb 53 34 ad bd
       -0.042084612 0.0069491635 -0.005379291 -0.08457246
0003d0 ee d3 70 3d 3c 53 99 3c 76 91 01 3c d8 7e e7 bc
       0.058795862 0.018716447 0.007908216 -0.028258726
0003e0 52 59 c4 3d d8 a9 26 bd de 8e fe 3d d6 74 38 3c
       0.09587349 -0.04068932 0.124295935 0.011258325
0003f0 3c bf db bc 0f 20 32 bd 0b f9 d9 3c 0f c2 5f bd
       -0.026824586 -0.043487605 0.02660801 -0.054628428

network.2.bias f4 [84]
000000 14 e4 5b bd 9c 5c 38 3e 28 6f ac 3d 06 8c a4 bc
       -0.05368431 0.18004078 0.08419639 -0.0200863
000010 8d 80 9e 3d f2 3d 2c 3e 70 83 fd bc 65 8b 35 3c
       0.07739363 0.16820505 -0.030946463 0.0110805975
000020 c7 22 8c 3d 39 93 f4 3d 43 22 d6 bd 22 55 41 3e
       0.06842571 0.11942143 -0.10455754 0.18880132
000030 aa 89 d2 3d ed 6c 32 bd fc 07 3a 3e e4 bb 9c bd
       0.102801636 -0.04356091 0.18167108 -0.07653025
000040 be ee 2c bc d4 49 ae bd ad 53 25 3d 99 1b 35 3e
       -0.010554967 -0.08510175 0.040363003 0.17686309
000050 dc 9b 05 3e 45 ba fa 3d a1 92 84 3c af 46 28 bc
       0.13047737 0.12242559 0.0161832 -0.0102707585
000060 33 b3 79 bd 0b 41 94 bd 5f 3f 59 bd b3 ce 7e 3d
       -0.060961913 -0.072389685 -0.05303895 0.062208842
000070 fa bf 69 bd 66 c4 21 bd c8 db db bd c4 10 1c 3d
       -0.05706785 -0.03949394 -0.10735279 0.038101926
000080 fe 41 ad 3d 04 58 8c bd 6e 2c d4 bd b5 bd 4a 3d
       0.08459853 -0.06852725 -0.10360037 0.049497325
000090 36 0b 95 bd 14 af 0e 3e 19 84 3e bd a7 85 0d 3c
       -0.07277529 0.13933975 -0.046512697 0.008637822
0000a0 e6 b5 1e 3e ed 8b 9b 3d fd ee 20 39 78 3a a3 3d
       0.15499076 0.07595048 0.00015347819 0.079701364
0000b0 4d 77 c4 bd 2c ff b4 3c 7a 0c 0f bd 79 fb aa 3d
       -0.09593067 0.022094332 -0.034924008 0.08348746
0000c0 13 97 0e 3e ab 0e 90 bd 51 6b ae bc 59 f0 f4 3d
       0.13924818 -0.07034048 -0.021291407 0.11959905
0000d0 eb cc 25 3e 66 5e 82 bd c5 ae 91 3d 50 32 22 3d
       0.16191451 -0.06365661 0.07113413 0.039598763
0000e0 5b 68 7b 3d e3 74 49 3e 5e c0 af 3c 8e cf 56 bd
       0.061378818 0.19673495 0.021454033 -0.052444033
0000f0 9a a3 cc bd 97 fa 8e 3d 3b 53 9b 3d 88 44 b0 bd
       -0.09992142 0.0698139 0.07584234 -0.08606821
000100 9c 62 39 3d a2 6d 4e bc 2a 57 24 3d 96 a9 53 bd
       0.045260057 -0.012599381 0.04012219 -0.0516754
000110 30 fb 64 ba a1 72 23 3e 7d 80 cd 3d 28 f6 33 3b
       -0.00087349396 0.15961696 0.10034273 0.0027459953
000120 5c e4 82 3b a9 7a 1c 3e 0b 9d d8 bd 0f 08 c2 3d
       0.0039945077 0.15281166 -0.105768286 0.09474193
000130 65 50 98 3c 01 7d 86 bd b6 f8 00 bd e0 07 f0 bc
       0.018593023 -0.06566811 -0.03148719 -0.02930063
000140 45 45 60 bc e2 f7 9e bd 9b 20 7a 3d 8d d0 17 bd
       -0.01368839 -0.07762124 0.06106625 -0.037064124

network.4.weight f4 [21, 84]
000000 d7 b3 bd bd 0e 3e 06 3c 25 e8 c7 3d 74 d7 95 3c
       -0.09262817 0.008193506 0.09761075 0.018291213
000010 91 b6 5f 3c 81 94 e9 3d 5e ae c9 3d be 39 bb 3d
       0.013654367 0.11405278 0.09847711 0.09141873
000020 4f ab a6 3d 93 4e 44 3d 59 65 df 3c ee fa 2a 3e
       0.08138143 0.047926497 0.027270006 0.16697285
000030 1d a8 98 3d 18 ed 4a bc 74 04 ac bd e0 d3 18 bd
       0.0745394 -0.012385629 -0.08399287 -0.037311435
000040 25 9e 13 3d 1d 61 61 3d a5 b5 4f 3d 5a 1a f3 3d
       0.03603949 0.055024255 0.05071034 0.118702605
000050 37 64 6c 3e 28 a7 c5 3d b7 d3 51 3d 47 54 b7 3d
       0.23085104 0.09651023 0.051227298 0.089516215
000060 70 c0 1a 3d 5f de a2 3d 43 27 00 bb 82 44 a3 3e
       0.03778118 0.0795257 -0.0019554652 0.31888205
000070 04 77 c9 bd 19 e4 b7 bd c8 cb 9f bc 96 11 92 3d
       -0.098371536 -0.08979053 -0.01950635 0.071322605
000080 37 8b e0 bc 9b ce 9d bd ce 2d c1 bd 7e 0e a6 3c
       -0.027410133 -0.077054225 -0.09432565 0.020270582
000090 bb 0a 1a 3e c2 27 11 3e ed 1c d3 3d 87 be 87 3e
       0.15043156 0.14175323 0.103082515 0.26512548
0000a0 55 e3 16 3e 08 47 ac 3d 89 62 9a 3d f6 c8 e6 3c
       0.14735158 0.08411986 0.07538325 0.028171998
0000b0 68 e8 2d bd ff d3 99 bb aa 82 c0 3e ab 31 12 3e
       -0.042457968 -0.0046944614 0.3759969 0.1427676
0000c0 72 9e b0 bc cb 38 9c 3b f4 4b a1 3d 34 15 14 3e
       -0.021559928 0.0047675124 0.07875815 0.14461213
0000d0 c3 72 d9 3d 18 ec 70 3e df 31 ae bd 23 48 80 3d
       0.10617592 0.23527563 -0.08505606 0.06263759
0000e0 19 34 b3 bb 42 d6 f3 3c cb 58 f1 bc 14 11 a2 3d
       -0.005468857 0.029765252 -0.029461285 0.07913414
0000f0 4a 1d 0f 3b 2b c5 ce bd 04 7b 99 3d 40 3f cc 3d
       0.0021837526 -0.100962006 0.074941665 0.099730015
000100 27 a3 92 3d d2 a5 c9 3d c7 be 65 3c 05 bc 90 3c
       0.07160025 0.09846081 0.014022536 0.01766778
000110 0b 61 06 3c c7 b8 52 3e 26 b2 05 3e 94 b6 a6 3d
       0.008201848 0.205783 0.1305624 0.08140293
000120 37 45 06 3f 8e 20 b7 3c 74 f2 44 ba de 2f 41 bd
       0.52449363 0.02235439 -0.0007512935 -0.04716479
000130 49 02 12 ba 9b 11 e8 3b 41 ac a2 3d ea a4 64 bd
       -0.00055697985 0.007082177 0.07943011 -0.055821337
000140 fd 1f ad bd 4d e9 9d bb c4 67 34 3e f1 ca 89 3b
       -0.08453367 -0.0048190714 0.17617708 0.0042051007
000150 91 32 27 bc 3a 79 a5 3c 11 46 a7 3c fc dc 52 3d
       -0.010204927 0.020199407 0.020419152 0.05148028
000160 ce 64 4e 3e d2 57 be 3d 54 e2 5e bd bc 21 59 bd
       0.20155641 0.09294094 -0.054415062 -0.053010687
000170 d9 af 1a bd b3 6b 14 3e b9 76 e2 3c 7e 57 49 3e
       -0.037765358 0.14494209 0.027644502 0.19662282
000180 87 56 86 3d 2b ad 10 3d 3b 25 01 bc 60 2d a8 bb
       0.065594725 0.035321396 -0.007882412 -0.0051323622
000190 d2 b2 00 3e 1f ab c5 bd ad 32 7b 3d 17 09 fe 3d
       0.12568215 -0.096517794 0.061327625 0.124040775
0001a0 94 f1 58 3e db 89 d4 3d 0b e1 c2 bd 6a b7 8f 3d
       0.21185905 0.10377856 -0.0951558 0.07017405
0001b0 65 28 7e bd 03 c3 12 3d 9a ab 74 bd 45 17 8b 3e
       -0.062050242 0.03583051 -0.059733965 0.2716619
0001c0 bd 76 9b 3c 75 2f be bd b3 5d bf 3d 86 e3 9a bc
       0.018977517 -0.092863955 0.093440436 -0.01890732
0001d0 f7 4e ca 3d e3 07 c8 bc 80 b5 bc 3d a3 76 bc 39
       0.098783426 -0.024417823 0.09214306 0.00035946546
0001e0 7a 5e 85 bc 6a bb be 3d 87 9e 82 bd 56 8e 2c 3e
       -0.016280401 0.0931309 -0.06377893 0.16851172
0001f0 e1 62 00 3e 6b ea 24 3e 7b 8c a9 3d 5f 07 eb 3d
       0.1253772 0.16105048 0.08278748 0.11476015
000200 61 23 14 bc de e2 6a 3d 1c e0 05 3e ea 91 a6 3d
       -0.009041638 0.057345264 0.13073772 0.081333
000210 28 0f 51 bb f3 fb 25 3d 8c 21 c1 bc 10 0f 07 3e
       -0.0031899903 0.04052348 -0.023575567 0.1318934
000220 0a d5 af 3d 3b 39 3f 3d 06 6f c4 3c fa 53 e9 3d
       0.08585556 0.04668544 0.023978721 0.113929704
000230 86 1a 84 bd 23 c3 a6 3d b4 a3 8e 3c 34 b7 a2 bd
       -0.064503714 0.08142688 0.017412044 -0.079450995
000240 5b 8c c8 3d 8b b1 d3 3c ac 54 f9 bd d1 b5 44 3d
       0.09792396 0.025841495 -0.12174353 0.048024956
000250 4c bf 0b 3d dd ff 20 bc 25 23 c0 bc 74 24 40 bd
       0.03411798 -0.009826628 -0.023454258 -0.046909764
000260 5f 1f 04 bd ab 4f c9 3d 3c 06 f0 3d eb 63 b5 3d
       -0.03225648 0.098296486 0.11719939 0.088569485
000270 10 6d 02 3e 31 49 fe 3d 67 0a 60 bc 10 72 22 3d
       0.12736917 0.12416304 -0.013674355 0.03965956
000280 f0 10 f1 bd 34 d4 98 3c 0e 33 24 bd 8b 15 7a bd
       -0.11770809 0.018655874 -0.040087752 -0.0610557
000290 b2 b0 87 3d 6b 40 98 3c 81 2e d9 3d 62 ce c6 bd
       0.06625499 0.018585404 0.10604573 -0.09707333
0002a0 8a 29 ad bd d1 3c 81 3d 06 ab 94 bb af 3b a5 bd
       -0.084551886 0.06310428 -0.004536989 -0.08068024
0002b0 5f 50 aa 3d 29 f5 80 bb 08 db 73 3d 8e 1a 94 3c
       0.08316111 -0.0039354754 0.059535056 0.018079069
0002c0 4a 42 b9 3d ba b3 2a 3e 9c d3 bb bd ea e6 11 3e
       0.09045847 0.16670123 -0.09171221 0.14248243
0002d0 1b c2 8c 3d e6 56 83 3d 53 4a 45 bc 17 c6 68 3d
       0.0687296 0.06413059 -0.012041646 0.05682954
0002e0 5e 73 00 3e a4 44 9d bd e6 1f 10 3e 75 0d 0d 3e
       0.12544009 -0.07679108 0.14074668 0.13774665
0002f0 e7 8d 0e 3e ed 2b 67 3d 0d f7 74 3d 62 1e 51 3c
       0.13921319 0.056438375 0.05980592 0.0127635915
000300 7d 2b 95 bd c9 e3 9d 3d b3 58 79 3d 43 2c 67 3e
       -0.07283685 0.07709462 0.060875606 0.22575478
000310 47 79 66 bd e9 06 14 bd 18 dc 65 3d 21 52 69 bd
       -0.056268003 -0.036139403 0.0561181 -0.05696309
000320 b2 36 45 bd 27 1c a6 3c eb 33 21 bd bb 6f 81 3d
       -0.048147865 0.020277096 -0.039356153 0.06320139
000330 fb d0 8b be 85 1d a9 3d b4 2c 8a bd 31 41 92 3e
       -0.27307877 0.082575835 -0.06746808 0.28565362
000340 76 0b 46 3e 31 39 17 3e 01 8b 3a 3d 1c 83 de 3c
       0.1934031 0.1476791 0.04554272 0.027162127
000350 45 5f d8 bd 69 0c 98 3d 65 88 38 3e 4b f2 18 3e
       -0.10565046 0.07424242 0.1802078 0.14936177
000360 f0 1d ee 3d ce 49 8c 3d 2f 86 94 3d 6e f9 21 3e
       0.11626804 0.068500146 0.07252156 0.15817806
000370 47 78 33 3d a1 87 85 3e 4a c9 96 bd ac e2 10 3d
       0.043815877 0.2608004 -0.073626116 0.03537242
000380 9b 84 ca bc 8c ba 84 3d fe 5d ac 3d b9 39 fb bc
       -0.024721434 0.064808935 0.08416365 -0.030667173
000390 d0 9e 43 bd ec 55 ac bd 62 63 89 3c d5 41 19 bb
       -0.047758877 -0.08414826 0.016771022 -0.0023385186
0003a0 e8 d8 2d bb 8c 12 eb 3d 6a dc 6a bc 8a e6 0d 3d
       -0.0026526991 0.11478147 -0.014334777 0.034643687
0003b0 d9 4e 8b 3d 3c 95 27 3e 6f 6f 17 3e ba e2 00 bc
       0.06802148 0.16365522 0.14788602 -0.007866556
0003c0 88 5e 02 3d 03 40 92 3d 65 f2 ab bc f0 e7 c7 bd
       0.031828433 0.071411155 -0.020989606 -0.097610354
0003d0 00 2b bb 3d 03 12 9e 3d d1 40 b7 3d fa 5b ec 3c
       0.09139061 0.07718279 0.089479096 0.028852452
0003e0 ef 01 f1 3c f2 d0 bd bd d2 8d 0b 3e 2a b9 7f 3d
       0.029419867 -0.09268369 0.13628319 0.062432446
0003f0 a2 d6 83 bc 02 25 13 bb 29 27 17 3e b3 72 e2 bc
       -0.016093556 -0.0022452478 0.14761032 -0.027642583

network.4.bias f4 [21]
000000 2f eb bb 3d c9 23 2a 3e 26 9e 1a 3e 79 19 c0 3d
       0.09175717 0.16615213 0.15099391 0.093798585
000010 a9 01 01 3e b0 9b 20 3e 2e b4 ab 3d 72 31 15 3e
       0.1259829 0.1568439 0.08383976 0.14569643
000020 51 c8 d2 3c 34 88 d6 3d 96 9a 4f 3e 5c df ba 3d
       0.025730284 0.104751974 0.20273814 0.09124634
000030 6d 10 1d 3e 16 83 14 3e 07 b2 5a 3d 8b f1 9e 3d
       0.15338297 0.1450313 0.053392436 0.077609144
000040 b3 a0 e0 3c 8c 71 a1 3d e2 70 08 3e b4 ca f0 3c
       0.027420377 0.078829855 0.13324311 0.029393531
000050 4f ec 0b 3e
       0.13664363
