deepQ_random/red_final.pt (torch, 248064 bytes, 10 tensors)

cnn.0.weight f4 [5, 5, 3, 3]
0	0x3cfdaddf	0.030966697
1	0xbcaa4eb3	-0.02078948
2	0x3c4b3e52	0.012404995
3	0x3d44068a	0.0478578
4	0xbd483da9	-0.04888693
5	0x3d9c8efc	0.076444596
6	0x3ccca25f	0.024979768
7	0x3da35814	0.07975784
8	0x3beac45e	0.007164522
9	0x3dc9a2fc	0.0984554
10	0x3e9cc1fc	0.30616748
11	0x3dac4544	0.08411649
12	0x3d739e8f	0.059477385
13	0x3e75dd12	0.24010113
14	0xbcd6d6e8	-0.026225522
15	0x3e3baf3c	0.18328565
16	0xbd72c132	-0.059266277
17	0x3e02ef3e	0.12786576
18	0xbdb2f068	-0.0873726
19	0xbf2db1a4	-0.67849183
20	0xbe875079	-0.26428583
21	0xbe394ec0	-0.18096447
22	0xbee72467	-0.4514496
23	0xbe98d465	-0.29849544
24	0xbf0db7ea	-0.55358756
25	0xbe245bfa	-0.16050711
26	0xbee25f2e	-0.4421324
27	0x3d79b863	0.06096686
28	0x3e6aa0a2	0.22912839
29	0x3ec9670b	0.39336428
30	0x3dd98040	0.10620165
31	0xbe5fc7b9	-0.21853532
32	0x3e90660b	0.28202853
33	0x3dd44f27	0.103666596
34	0x3e1e1605	0.15438087
35	0x3e175d33	0.14781646
36	0x3e569134	0.20953828
37	0x3d211bd6	0.039333187
38	0x3dfbdb7a	0.12297721
39	0x3e78830b	0.24268739
40	0x3d167643	0.036733877
41	0x3e0d0c77	0.13774286
42	0x3e385828	0.18002379
43	0x3db807be	0.08985852
44	0x3dd34266	0.10315399
45	0xbb2f85ec	-0.0026782705
46	0x3d6bbc60	0.057552695
47	0x3e19135b	0.1494879
48	0xbe00f275	-0.1259249
49	0xbba64b91	-0.005074926
50	0x3f031b1f	0.5121326
51	0x3cfcf12a	0.030876715
52	0xbd17caef	-0.037058767
53	0xbdd44d35	-0.103662886
54	0x3ba330ab	0.004980167
55	0xbda11608	-0.0786553
56	0xbd6ad117	-0.05732831
57	0xbd8820bd	-0.06646869
58	0x3deedf9b	0.11663743
59	0xbe00116b	-0.12506644
60	0x3e571c84	0.21006972
61	0x3db57e9b	0.08862039
62	0xbb13f3cf	-0.0022575741
63	0x3be36f39	0.006940749
64	0x3da913a0	0.08255696
65	0x3d9fa765	0.077956
66	0x3e58a2fa	0.2115592
67	0xbdc5131e	-0.09622787
68	0x3dfb5d55	0.12273661
69	0xbdde617f	-0.1085844
70	0xbd2bf707	-0.04198363
71	0x3c743d33	0.014907169
72	0x3e95db7d	0.2926902
73	0x3f312521	0.6919728
74	0xbdfdd187	-0.1239348
75	0x3d9e9781	0.07743741
76	0x3d9d9355	0.07694117
77	0xbd0a7424	-0.033802167
78	0x3e688c20	0.22709703
79	0x3dc7e542	0.09760524
80	0x3f2e4fa1	0.68090254
81	0xbeafcb3c	-0.34334743
82	0xbf312d59	-0.6920982
83	0x3e51aa2e	0.20475075
84	0xbd62e712	-0.055396147
85	0x3dd98c08	0.10622412
86	0x3e2eb1b3	0.17059974
87	0xbea69786	-0.32537478
88	0x3cb6c6e9	0.022311645
89	0xbf246be1	-0.6422711
90	0xbcfc7c05	-0.030820856
91	0xbc73b9bf	-0.014875828
92	0xbbbf30ed	-0.00583469
93	0x3c15b35e	0.009137003
94	0x3c58ae51	0.013225154
95	0xbe24441d	-0.16041608
96	0x3c2eff5b	0.010680999
97	0xbbcc67d8	-0.006237965
98	0xbdc052bb	-0.093907796
99	0xbd57cb96	-0.05268439
100	0xbd1eed78	-0.038800687
101	0xbdd29e84	-0.10284141
102	0xbcecb5cc	-0.028895281
103	0xbdde1457	-0.10843723
104	0xbcf10685	-0.029422054
105	0xbd2ae0c3	-0.041718256
106	0xbe0a7612	-0.13521603
107	0xbe17a1c4	-0.14807802
108	0x3c50b120	0.012737542
109	0xbc365571	-0.011128769
110	0x3d4adc7f	0.049526688
111	0x3daca298	0.0842945
112	0x3ec34c01	0.38143924
113	0xbdb95050	-0.090485215
114	0x3d8b311d	0.06796477
115	0x3e0a2a56	0.13492712
116	0x3db699f6	0.089160845
117	0x3e71b35f	0.23603581
118	0x3f147d8e	0.5800408
119	0x3e02eb06	0.12784967
120	0x3e095eef	0.1341512
121	0xbea5866b	-0.32329115
122	0x3f181509	0.594071
123	0x3e68be14	0.22728759
124	0x3d4a5bee	0.049404077
125	0x3e5c1321	0.21491672
126	0x3b88ae13	0.004171142
127	0xbcb5156e	-0.022104945
128	0xbe15b188	-0.14618504
129	0x3c8b4dae	0.017004814
130	0xbde7b17b	-0.113131486
131	0xbe9c1138	-0.30481887
132	0x3d4b7a5e	0.049677245
133	0x3eac0e82	0.3360482
134	0xbe16516c	-0.14679497
135	0xbbf25a55	-0.0073960223
136	0xbdf306cd	-0.118665315
137	0xbd3d30b6	-0.046189032
138	0x3bfd3cf9	0.007728216
139	0xbd4f0017	-0.050537195
140	0xbd9f8500	-0.077890396
141	0xbc51dfda	-0.012809718
142	0x3deff0e6	0.117158696
143	0x3cda3361	0.026635827
144	0xbcbd55e1	-0.02311224
145	0xbd8fe365	-0.07025794
146	0x3c3e1e57	0.011603913
147	0xbdc5e02b	-0.09661897
148	0xbdd2a404	-0.1028519
149	0xbd5badbb	-0.05363248
150	0xbd0d2707	-0.034461048
151	0xbe282b33	-0.16422729
152	0x3d2c5062	0.042068847
153	0x3ca96001	0.020675661
154	0x3da5186a	0.08061297
155	0x3d9bdb3b	0.07610174
156	0x3db60b3b	0.08888861
157	0xbd3aee11	-0.045637194
158	0x3db47f83	0.088133834
159	0x3d08345c	0.03325306
160	0x3e05a8ff	0.13052748
161	0xbdbb2b31	-0.091390975
162	0xbe790544	-0.24318415
163	0x3eb68c05	0.356537
164	0x3ec5c58c	0.3862728
165	0x3cf1004d	0.029419089
166	0x3f274f56	0.6535543
167	0xbdf4e458	-0.119576156
168	0xbef883e7	-0.48538134
169	0xbdb14b06	-0.08656888
170	0x3c9aa957	0.018879576
171	0xbe1de478	-0.15419185
172	0x3e27931a	0.16364709
173	0x3e19fc82	0.1503773
174	0x3e2c3701	0.16817857
175	0x3c80f7a5	0.015743086
176	0xbe7c51cd	-0.2464058
177	0xbf091a9d	-0.53556234
178	0xbe5b9dc2	-0.21446899
179	0xbe4c0c08	-0.19926465
180	0xbd13e869	-0.036110315
181	0xbd989ff4	-0.07452384
182	0xbe717ba6	-0.23582324
183	0x3db5ad2d	0.08870921
184	0x3dc462bc	0.095891446
185	0xbe01c507	-0.12672816
186	0x3a6d0279	0.0009041201
187	0xbbd6f400	-0.006559849
188	0xbe2082f7	-0.15674959
189	0x3d3cd8b8	0.046105117
190	0x3eccc53f	0.39994237
191	0x3e649f98	0.22326505
192	0x3d420c2e	0.047374897
193	0xbd3a98e9	-0.045555983
194	0x3e0e29cd	0.13883133
195	0xbdacf3c0	-0.08444929
196	0x3cd8f854	0.0264856
197	0xbb912810	-0.0044298247
198	0xbd36b2bf	-0.04460406
199	0xbf2f1230	-0.68387127
200	0xbea5086c	-0.32232988
201	0xbd797997	-0.060906973
202	0x3d754fd9	0.0598906
203	0xbe3b457f	-0.1828823
204	0x3dc5f479	0.0966577
205	0xbdf5b953	-0.119982384
206	0x3c9affba	0.018920768
207	0xbe048ab0	-0.1294353
208	0xbe567dc0	-0.20946407
209	0x3e9d346b	0.30704054
210	0x3dc4da91	0.09612001
211	0x3dbac408	0.09119421
212	0x3eacfb28	0.33785367
213	0xbe9775b3	-0.29581985
214	0x3da6438a	0.08118351
215	0x3d4b0bf0	0.04957193
216	0xbdbf0752	-0.09327568
217	0xbeafced8	-0.34337497
218	0xbe1edaec	-0.155132
219	0x3e260427	0.16212521
220	0x3e189673	0.14901142
221	0x3e3324f0	0.1749456
222	0xbe176f24	-0.1478849
223	0x3ea8359d	0.32853404
224	0x3e462615	0.19350465

cnn.0.bias f4 [5]
0	0x3d527825	0.05138411
1	0xbdea56fa	-0.11442371
2	0xbb87dac8	-0.004145954
3	0xba223ec3	-0.0006189162
4	0x3d9e4dc8	0.07729679

cnn.2.weight f4 [5, 5, 3, 3]
0	0xbe3bc012	-0.18334988
1	0xbe891779	-0.2677572
2	0xbd1a535f	-0.037677165
3	0x3dd16b7e	0.10225581
4	0xbe576cb5	-0.21037562
5	0x3d9a5214	0.075351864
6	0xbde016c2	-0.10941841
7	0x3e4df745	0.20113857
8	0x3da82af1	0.082113154
9	0xbc9bf63e	-0.019038316
10	0xbd3133d5	-0.04326232
11	0xbcad58bc	-0.021160476
12	0x3e3dbc1a	0.18528786
13	0x3d89e53d	0.06733177
14	0x3ef5ba46	0.47993678
15	0x3e482210	0.19544244
16	0x3e34ac2a	0.176438
17	0xbe3ad9f2	-0.18247202
18	0x3e43fa5c	0.19138473
19	0x3ddb83e1	0.10718513
20	0xb894e9e8	-7.1007584e-05
21	0x3da59880	0.08085728
22	0xbdab7af5	-0.083730616
23	0x3db6fde3	0.08935144
24	0x3e62690b	0.22110383
25	0xbea5d965	-0.3239242
26	0x3d9bf7ed	0.076156475
27	0x3e6d4d1c	0.23173946
28	0x3e4361c2	0.1908026
29	0x3dd0673d	0.10175941
30	0x3e2c7e33	0.16845016
31	0x3dfc775d	0.12327454
32	0x3da040b8	0.07824844
33	0x3d6ec539	0.058293555
34	0x3e0163ac	0.12635678
35	0xbda63ec1	-0.08117438
36	0xbd1fc951	-0.03901035
37	0xbe5ac123	-0.21362738
38	0xbcc59047	-0.024116648
39	0x3d7b5b89	0.06136659
40	0x3dc3c3bb	0.09558817
41	0xbe3380eb	-0.17529647
42	0x3dd48e2a	0.10378678
43	0xbe04fee0	-0.12987852
44	0x3d0fea54	0.035135582
45	0xbe06b91b	-0.1315655
46	0xbe6d4c88	-0.23173726
47	0xbdb98ae0	-0.090596914
48	0xbd3fa9ce	-0.046792798
49	0xbbe27162	-0.006910489
50	0xbd201160	-0.03907907
51	0xbe98c021	-0.29834083
52	0xbe2815db	-0.16414587
53	0xbda6c93a	-0.0814385
54	0xbe1be38b	-0.1522352
55	0xbe0c6ccc	-0.13713378
56	0x3b7c29c2	0.0038477038
57	0xbdd5ccbd	-0.10439441
58	0x3d375694	0.0447603
59	0x3e6eb676	0.23311791
60	0xbe320dd3	-0.17388086
61	0xbcd77ad7	-0.026303692
62	0xbe91e317	-0.28493568
63	0x3d54c2a1	0.051943425
64	0x3e00d696	0.12581858
65	0xbd240ed6	-0.04005321
66	0x3e5b33b8	0.21406448
67	0x3e6b80ee	0.22998402
68	0x3e324366	0.17408523
69	0x3e29cf67	0.16583024
70	0x3daefed7	0.085447006
71	0x3ec0f817	0.37689278
72	0x3e1f824f	0.15577053
73	0x3e48f73b	0.19625561
74	0x3d1d8157	0.038453426
75	0x3df7fec0	0.121091366
76	0x3da10720	0.07862687
77	0x3e8f06f1	0.27934983
78	0x3da07978	0.07835668
79	0x3dac592d	0.084154464
80	0x3d68b158	0.056809753
81	0xbd8f23fe	-0.06989287
82	0x3daee59f	0.085398905
83	0xbd15188f	-0.036400374
84	0xbd7a7d19	-0.06115446
85	0x3d8ad69d	0.067792155
86	0x3e01b8cb	0.12668149
87	0xbda53cf9	-0.0806827
88	0xbc8803ce	-0.016603377
89	0x3cb6236f	0.022233693
90	0x3e3a89f9	0.18216695
91	0xbce38e42	-0.027777795
92	0x3e8e9182	0.2784539
93	0x3b5dbf10	0.0033835806
94	0xbd8157ae	-0.06315552
95	0x3ea62d58	0.3245647
96	0x3d1f435a	0.03888259
97	0x3c2feb07	0.010737187
98	0x3cc55d44	0.024092324
99	0xbea0f453	-0.31436405
100	0xbec59997	-0.38593742
101	0xbe80cce6	-0.25156325
102	0xbea86596	-0.32890004
103	0xbe3879e0	-0.18015242
104	0xbe96f5d8	-0.2948444
105	0xbdba97bd	-0.09110973
106	0xbe41236e	-0.18861172
107	0xbe8c5457	-0.27408096
108	0x3ea4f076	0.32214707
109	0x3c3facb4	0.0116988905
110	0x3e318629	0.17336334
111	0x3dfa1385	0.12210754
112	0x3e205604	0.15657812
113	0x3e00b334	0.1256836
114	0x3d5b6a2f	0.05356806
115	0x3e47894f	0.19485973
116	0xbe1c078d	-0.15237255
117	0x3eb3bd7f	0.35105512
118	0x3e822d26	0.2542507
119	0x3e246202	0.16053012
120	0x3e2ef777	0.17086588
121	0x3bd8b9e7	0.006613958
122	0x3cad05f2	0.021120999
123	0x3e08cb94	0.13358909
124	0xbe51126a	-0.2041718
125	0x3e1e0a10	0.15433526
126	0x3e1d88b9	0.15384187
127	0x3d663271	0.05620045
128	0x3db925d3	0.090404175
129	0xbdeb09db	-0.11476489
130	0xbd9e7d0c	-0.077386945
131	0x3e35c62f	0.17751382
132	0x3d0c09f5	0.034189183
133	0x3dc6306e	0.09677206
134	0xbc9aef14	-0.01891283
135	0xbe0764b7	-0.13222013
136	0x3e35d9d1	0.17758872
137	0x3d1e89aa	0.038705505
138	0x3ebf0e88	0.37315774
139	0xbd9a241a	-0.07526417
140	0x3df66085	0.120301284
141	0x3dfc0941	0.123064525
142	0xbc0415a2	-0.008061798
143	0xbde703fb	-0.11280056
144	0xbe0d253c	-0.13783735
145	0xbe8341df	-0.25636193
146	0x3da3338d	0.07968817
147	0x3e9e83a3	0.30959806
148	0xbd6a6b29	-0.057231102
149	0xbebd30eb	-0.36951384
150	0xbe14481d	-0.14480634
151	0xbc2e7daf	-0.0106500825
152	0xbe70919f	-0.2349305
153	0xbcdc30f5	-0.026878813
154	0xbe4a76fe	-0.19771954
155	0x3da0f1ce	0.078586206
156	0xbf07d437	-0.5305819
157	0xbe1b9ac0	-0.15195751
158	0xbd19304a	-0.037399568
159	0xbe11294f	-0.14175914
160	0xbe82d3e9	-0.255523
161	0x3d7b786b	0.061394136
162	0x3d0d582d	0.03450792
163	0x3dd65b38	0.10466617
164	0x3dfb1a97	0.12260931
165	0x3d82a22d	0.06378589
166	0x3b894759	0.0041894135
167	0x3df5002b	0.11962923
168	0x3e2b08f9	0.16702642
169	0x3c3a3018	0.0113640055
170	0x3e278794	0.16360313
171	0x3d44744b	0.047962468
172	0x3e2b3955	0.16721089
173	0x3d8dc37c	0.06922051
174	0xbdfaf25b	-0.12253257
175	0x3d04d863	0.032432925
176	0x3e005400	0.12532043
177	0x3ec92bb1	0.39291146
178	0x3e89e54e	0.26932758
179	0x3e8aa192	0.27076393
180	0xbc4fa714	-0.012674112
181	0x3ce304f6	0.027712326
182	0x3dcd3e94	0.100217015
183	0xbd6e4bc9	-0.058177743
184	0x3e27d66c	0.16390389
185	0xbdc3a48d	-0.0955287
186	0x3d7ce3fb	0.061740857
187	0x3e60b85c	0.21945328
188	0x3e030e33	0.12798385
189	0xbc1ef2a9	-0.009701409
190	0x3f0fd5ac	0.5618541
191	0xbe5089fb	-0.20365135
192	0x3de409ac	0.11134657
193	0xbec78247	-0.3896658
194	0xbe11a2d1	-0.14222266
195	0x3bdfc1a9	0.006828506
196	0xbe7b96da	-0.24569264
197	0x3ef66a46	0.48127955
198	0x3da0c873	0.07850733
199	0xbf061720	-0.52379036
200	0xbe264f33	-0.1624115
201	0x3e3212ef	0.17390035
202	0x3e77d936	0.24203953
203	0xbe69160b	-0.22762315
204	0xbbabc03a	-0.005241421
205	0x3e39cac4	0.18143755
206	0x3ec6aea8	0.38805127
207	0x3dc40c99	0.09572715
208	0xbd1182d5	-0.03552516
209	0x3d495122	0.04914964
210	0xbdee0344	-0.116217166
211	0xbdd76ff6	-0.10519402
212	0x3e9fc9c1	0.31208614
213	0x3d88fff4	0.06689444
214	0x3e8de364	0.27712548
215	0x3e51cc4d	0.20488091
216	0xbe115384	-0.14192015
217	0xbe86f70a	-0.2636035
218	0x3d89c6fd	0.06727407
219	0xbd029c16	-0.031887136
220	0x3eb1033d	0.34572783
221	0x3e028931	0.12747647
222	0xbd15798c	-0.03649287
223	0x3e90cc46	0.28280848
224	0x3e8fa2ce	0.28053898

cnn.2.bias f4 [5]
0	0x3d03f4ef	0.03221601
1	0x3df8b681	0.12144185
2	0xbcedef1c	-0.02904468
3	0x3d8e799a	0.069567874
4	0xbe2a792e	-0.16647789

network.0.weight f4 [120, 405]
0	0xbc8bc092	-0.017059598
1	0xbd357420	-0.0443002
2	0xbc4384f5	-0.011933555
3	0xbcd9bb97	-0.026578708
4	0x3c1764ec	0.00924037
5	0xbc6c9744	-0.014440361
6	0xbcd5c6c7	-0.026095761
7	0xbbc5bde2	-0.0060345987
8	0xbc170de6	-0.009219622
9	0xbcc81ddc	-0.0244283
10	0xbc4992b0	-0.012303039
11	0xbcfff683	-0.031245476
12	0xbd62205a	-0.055206634
13	0xbd518eca	-0.051161565
14	0x3d032688	0.03201917
15	0x3c7cc9ab	0.015428941
16	0x3ce8639b	0.028367808
17	0xbd27ed61	-0.040997867
18	0xbcce2704	-0.025165088
19	0xbd6f379f	-0.058402654
20	0xbca6cc7f	-0.020361183
21	0xbd752603	-0.059850704
22	0x3d08548d	0.03328376
23	0xbd3383cd	-0.043826867
24	0x3cf962e4	0.030442663
25	0x3cbe26c8	0.023211852
26	0xbd34b83b	-0.04412101
27	0xbd4bf2b7	-0.049792018
28	0xbd5bbe9d	-0.05364858
29	0x3ce6fcb6	0.028196674
30	0xbcfff1ca	-0.031243224
31	0xbd6f30d3	-0.05839617
32	0x3cdc5d1f	0.026899872
33	0xbbb0b338	-0.0053924583
34	0xbbdb9d53	-0.006702104
35	0xbc63ee0f	-0.013911738
36	0xbbb4c384	-0.0055164713
37	0x3bddfa73	0.0067742406
38	0x3cead324	0.028665133
39	0xbd113eff	-0.03546047
40	0xbcdea7e3	-0.027179664
41	0x3d015d97	0.031583395
42	0xbc9be008	-0.019027725
43	0xbc5da8d6	-0.013529023
44	0xbb04ee1e	-0.002028353
45	0xbc98e590	-0.018664151
46	0xbd4fac67	-0.050701525
47	0xbd528bc1	-0.05140281
48	0xbc3c98ec	-0.011511069
49	0x3baa8762	0.005204127
50	0xbd296301	-0.041354183
51	0xbd049b47	-0.032374647
52	0x3d0075ca	0.031362332
53	0x3d08672c	0.033301517
54	0x3b71cbd0	0.0036895163
55	0x3c081107	0.008304841
56	0xbd82b5cb	-0.063823305
57	0x3cd313e7	0.025766326
58	0xbd17cae8	-0.03705874
59	0xbc0256ca	-0.007955262
60	0xbd511ade	-0.051051013
61	0xbd0b46ca	-0.034003057
62	0xbd102edf	-0.03520095
63	0x3c8ba721	0.017047467
64	0xbc73b12b	-0.014873783
65	0xbc222302	-0.009896042
66	0xbcbcae95	-0.023032466
67	0x3c70eb45	0.01470453
68	0x3c291657	0.010320268
69	0x3c2572f3	0.010098207
70	0xbcab0ee8	-0.020881131
71	0x3cca6326	0.02470548
72	0xbc364758	-0.011125408
73	0xbcddfce4	-0.027098127
74	0x3c7f8c6d	0.015597445
75	0x3cafe1d6	0.021469992
76	0xbc04c016	-0.0081024375
77	0x3af5ddb3	0.0018758088
78	0xbd409336	-0.04701539
79	0xbd6e232f	-0.058139022
80	0xbc962364	-0.018327422
81	0xbd474c5a	-0.0486568
82	0xbd797ccc	-0.06091003
83	0xbd3a619a	-0.045503236
84	0x3b9eef15	0.004850278
85	0xbd2c04cb	-0.04199676
86	0xbd2b560c	-0.041830108
87	0x3cf8b64d	0.030360365
88	0xbd4aab9c	-0.049480066
89	0xbc486275	-0.012230505
90	0xbce1fa7b	-0.027585259
91	0xbd6c1235	-0.05763455
92	0xbd572a59	-0.05253062
93	0x3cb0c008	0.021575943
94	0xbc9f7c13	-0.019468343
95	0xbd25fe0f	-0.040525492
96	0xbd57aa79	-0.05265281
97	0xbd38749f	-0.045033094
98	0xbd530bb6	-0.05152484
99	0xbd171713	-0.03688724
100	0xbd2d31d1	-0.042283837
101	0x3af07e4e	0.0018348189
102	0xbd0cd1a7	-0.034379628
103	0x3b56a009	0.0032749197
104	0xbd2c26ea	-0.0420293
105	0x3b2275d3	0.0024789467
106	0xbd1a34c1	-0.037647966
107	0xbd20f8ad	-0.039299656
108	0xbd122741	-0.035681967
109	0xbd260387	-0.040530708
110	0x3b0cb5f8	0.0021470767
111	0x3d181f5c	0.03713928
112	0x3b84b2c7	0.004049632
113	0xbc5e5dd9	-0.01357218
114	0x3c3bce33	0.011462736
115	0xbd342857	-0.043983784
116	0xbc787b80	-0.015166163
117	0x3cec3903	0.028835779
118	0x3bb856a6	0.0056255637
119	0x3cfbdeea	0.030745942
120	0x3c9b1ec6	0.018935572
121	0xbd60e101	-0.05490208
122	0xbd15d8fb	-0.03658388
123	0xbc9f387c	-0.019436114
124	0x3b13f259	0.002257487
125	0x3c4213db	0.011845554
126	0x3cdb8bd9	0.026800083
127	0x3cadc694	0.021212853
128	0xbc1ee532	-0.009698199
129	0xbcb9b735	-0.022670368
130	0x3d112de0	0.03544414
131	0xbcc219f9	-0.023694025
132	0xbc64caba	-0.013964349
133	0xbc2fc69c	-0.0107285045
134	0xbcd0f41f	-0.025507031
135	0xbc5a62ff	-0.013329267
136	0x3b532f9e	0.0032224427
137	0x3d17e4fe	0.03708362
138	0x3c7c3fe1	0.015396089
139	0xbd4ad18a	-0.04951624
140	0xbca9539d	-0.020669753
141	0x3b2b6c7d	0.0026157193
142	0xba452cbf	-0.00075216213
143	0xbd1731c4	-0.036912695
144	0x3cf183a0	0.029481709
145	0xbd27ac6f	-0.04093593
146	0xbca4d526	-0.020121168
147	0xbd5dc26a	-0.054140486
148	0x3cdbb0b2	0.026817653
149	0xbce12f38	-0.027488336
150	0x3cd46048	0.025924817
151	0xbd352ebc	-0.044234022
152	0x3c5afdeb	0.013366203
153	0x3cd3a776	0.025836688
154	0x3c967e83	0.018370872
155	0xb9739269	-0.00023228828
156	0xbd34bdf3	-0.044126462
157	0xbcb96b67	-0.022634221
158	0xbd6d586e	-0.05794566
159	0xbd562234	-0.052278712
160	0x3cda4962	0.02664632
161	0x3cf161d7	0.029465599
162	0x3c285b25	0.010275637
163	0xba8d1858	-0.0010764701
164	0x3c844dc2	0.016150359
165	0x3cccddb1	0.025008054
166	0xbd870ae8	-0.06593877
167	0x3ced1e2d	0.028945053
168	0xbc0408ab	-0.008058707
169	0x3b54599d	0.0032402046
170	0xbd542ca5	-0.05180039
171	0x3d2192f8	0.0394468
172	0xbcbc72b5	-0.023003915
173	0xbd788160	-0.060670257
174	0x3c63f48b	0.013913284
175	0xbd8654f0	-0.06559169
176	0xbd1b8f33	-0.037978362
177	0x3d124c71	0.03571743
178	0x3ca4dadf	0.020123897
179	0xbd692025	-0.05691542
180	0xbd3c13a8	-0.045917183
181	0xbc9ecd89	-0.019385116
182	0xbd5be681	-0.053686623
183	0xbd8ee6a6	-0.069775864
184	0xbd872799	-0.065993495
185	0xbd1d9c69	-0.038479242
186	0xbd6270b0	-0.05528325
187	0xbcccc3c9	-0.024995701
188	0xbced85c7	-0.028994454
189	0x3c1a32a6	0.00941149
190	0xbc8f85b4	-0.01751981
191	0x3c36b6df	0.011151998
192	0xbda4e6a4	-0.08051804
193	0xbd832c6f	-0.064049594
194	0x3ca892ba	0.020577777
195	0xbd7ef880	-0.062248707
196	0x3a875ed1	0.001032794
197	0xbd6d2e02	-0.057905205
198	0x3c5773b3	0.013150143
199	0x3c806437	0.015672786
200	0xbda6254e	-0.08112584
201	0xbd1ee4c4	-0.038792387
202	0x3c71633f	0.014733135
203	0x3c6fea89	0.01464332
204	0xbc1df277	-0.009640328
205	0x3b321a91	0.002717648
206	0xbcffe8e2	-0.031238977
207	0xbd5b4050	-0.05352813
208	0x3c99386d	0.018703664
209	0xbd826078	-0.06366056
210	0xbcb28621	-0.021792473
211	0xbca7a256	-0.02046315
212	0xbd8b66b7	-0.06806701
213	0x3cb52ee4	0.022117086
214	0xbc5b6afa	-0.013392204
215	0xbc582024	-0.013191257
216	0x3c867e66	0.016417693
217	0xbd7fe77f	-0.06247663
218	0x3c593f84	0.013259772
219	0xbb704f6a	-0.0036668428
220	0xbb049cca	-0.0020235055
221	0xbaf67846	-0.0018804155
222	0xbd2cd8b6	-0.04219886
223	0xbd0574c1	-0.03258205
224	0xbd1110dc	-0.03541647
225	0x3c4319cd	0.011908007
226	0xbd5ff56e	-0.05467742
227	0xbc05f6a4	-0.0081764795
228	0xbaf535b4	-0.0018708021
229	0x3bc5378e	0.0060185855
230	0xbd2e7ae9	-0.042597685
231	0x3bf08aa6	0.007340747
232	0x3a3f13d7	0.0007289028
233	0x3cea7487	0.028620018
234	0x3af48ce6	0.0018657714
235	0xbd21fb1b	-0.039546113
236	0x3a85c0d8	0.0010204567
237	0xbd645afa	-0.055750825
238	0x3c66e4ca	0.0140926335
239	0xbd60ae1f	-0.054853555
240	0xbd67c8fe	-0.056588165
241	0xbda39a86	-0.079884574
242	0xbd4b0fb9	-0.04957554
243	0xbcdeb8fd	-0.027187819
244	0xbd52ff28	-0.051512867
245	0xbc1d6020	-0.0096054375
246	0xbcd97b13	-0.026547944
247	0xbae1a72d	-0.001721596
248	0x3caafa15	0.020871202
249	0x3d0d542b	0.034504097
250	0x3b9021e8	0.004398573
251	0xbd5e8e45	-0.054334898
252	0x3cd8cc38	0.026464567
253	0x3c8b0d6c	0.016974173
254	0xbc4ba30d	-0.012429011
255	0xbcf396ce	-0.029734995

network.0.bias f4 [120]
0	0x3d00eef3	0.03147788
1	0xbd0533aa	-0.032519974
2	0xbdb0a38d	-0.08624945
3	0xbd3ec4a2	-0.046574242
4	0xbd6735a7	-0.05644765
5	0xbd8766db	-0.06611415
6	0x3de58bd7	0.11208313
7	0x3e148f19	0.14507712
8	0x3c89773c	0.016780488
9	0xbd926c93	-0.07149615
10	0x3dfd7da5	0.123774804
11	0xbda54921	-0.08070589
12	0x3cbc9f82	0.023025278
13	0xbe627270	-0.22113967
14	0x3dde8dd7	0.108668976
15	0xbd5998a4	-0.053124085
16	0xbdacfeed	-0.08447061
17	0x3dbe26e3	0.09284761
18	0xbd0ba123	-0.03408922
19	0xbdfec39c	-0.12439653
20	0xbcb26a3e	-0.021779176
21	0xbd151d2e	-0.03640478
22	0x3cd62415	0.026140252
23	0xbc925aa8	-0.017865494
24	0x3b8410c8	0.004030321
25	0xbd85ca6b	-0.06532749
26	0x3d04d4ca	0.032429494
27	0xbd927136	-0.071504995
28	0xbc6dab63	-0.014506194
29	0xbd13f4d6	-0.036122166
30	0xbe83b340	-0.25722694
31	0xbeb2d5b0	-0.34928656
32	0xbcbae65a	-0.022814918
33	0xbda9ff11	-0.08300603
34	0x3e25f4d8	0.16206682
35	0x3d98f3d2	0.0746838
36	0xbcf2fd66	-0.029661845
37	0xbdd9a01e	-0.10626243
38	0xbd71fa84	-0.0590768
39	0x3dddc153	0.10827889
40	0xbe04815f	-0.12939976
41	0x3ccdd1c5	0.02512444
42	0xba802301	-0.0009776057
43	0x3b95f129	0.0045758677
44	0xbd453df7	-0.048154797
45	0xbd1240b6	-0.035706244
46	0xbbbe919c	-0.005815698
47	0xbd29eae0	-0.04148376
48	0xbd19277b	-0.037391167
49	0x3dcf6f6f	0.10128676
50	0x3cafa253	0.021439707
51	0x3cdcab1a	0.026937056
52	0xbe31a110	-0.17346597
53	0xbb816dc3	-0.003949852
54	0xba2f3582	-0.00066836935
55	0x3cd73a8f	0.02627304
56	0xbd179b48	-0.037013322
57	0x3dfda81c	0.1238558
58	0xbd2fb9fc	-0.042901978
59	0xbb02586f	-0.0019889136
60	0xbd84ac8a	-0.06478222
61	0xbd4064c0	-0.046971083
62	0xbe106d01	-0.14104082
63	0x3d446ee4	0.047957316
64	0xbca3fb58	-0.020017311
65	0xbdd0b9b7	-0.10191672
66	0xbc03d4cd	-0.008046341
67	0x3d8c7b1d	0.068594195
68	0x3d80f6f8	0.062971056
69	0xbdc2cfda	-0.09512301
70	0xbe20dad9	-0.15708484
71	0x3bacd369	0.0052742255
72	0xbc9b6db1	-0.018973203
73	0xbdcf0b9b	-0.101096354
74	0xbd090a16	-0.033456884
75	0xbd5ee4d9	-0.054417465
76	0xbe228be6	-0.1587368
77	0x3bcf67a9	0.006329496
78	0xbd7b322f	-0.061327156
79	0xbc8b853f	-0.01703131
80	0xbd52860a	-0.05139736
81	0xbccb8128	-0.02484186
82	0x3c41b9fb	0.011824126
83	0xbd6f2a14	-0.05838974
84	0xbd1e56aa	-0.038656868
85	0xbe2fad76	-0.17156014
86	0xbd839655	-0.06425158
87	0xbe297f3c	-0.16552442
88	0xbd7f3a6c	-0.062311575
89	0xbc802b77	-0.015645726
90	0x3c55e5ae	0.013055248
91	0x3da46426	0.08026914
92	0xbdefb013	-0.11703505
93	0x3da72432	0.081612006
94	0xbd2544b4	-0.040348724
95	0xbd849c0c	-0.06475076
96	0x3bbdb8b6	0.0057898415
97	0x3e75a2a8	0.2398783
98	0x3e162fb8	0.14666641
99	0xbcfd9d6b	-0.030958852
100	0xbd0ee42f	-0.03488558
101	0xbd806a2c	-0.06270251
102	0xbcb2d89d	-0.021831805
103	0xbcca776a	-0.024715144
104	0x3cc0385b	0.023464372
105	0x3c5166d2	0.012780862
106	0xbb33ba1c	-0.0027424162
107	0x3d031363	0.03200091
108	0x3ccab3ce	0.02474394
109	0xbe122b8d	-0.14274426
110	0x3d8a2b37	0.06746524
111	0x3a9aee16	0.0011820223
112	0xbd70040d	-0.058597613
113	0x3cb6be7d	0.022307629
114	0x3d9774f3	0.07395353
115	0xbd716f82	-0.058944233
116	0xbdbe0dc7	-0.092799716
117	0xbce3bba3	-0.027799433
118	0xbd40bd82	-0.04705573
119	0x3ca9bef2	0.020720933

network.2.weight f4 [84, 120]
0	0xbd709826	-0.05873885
1	0x3d83d61a	0.06437321
2	0x3dc5d1cf	0.096591584
3	0xbcc03498	-0.023462579
4	0xbd4c2a8d	-0.049845267
5	0xbd0282ee	-0.031863146
6	0xbdbd487b	-0.0924234
7	0x3d5e0109	0.054200206
8	0xbda21421	-0.079139955
9	0x3e8636c1	0.2621365
10	0xbdc8ae24	-0.0979884
11	0xbeb1f203	-0.34754953
12	0x3d28a23e	0.04117035
13	0x3d8c5ee1	0.06854034
14	0xbe0e0edb	-0.13872854
15	0xbd1d6ecd	-0.038435746
16	0xbe904c81	-0.28183368
17	0x3d4bfa68	0.049799353
18	0x3d9259b3	0.07146015
19	0x3e4a7a88	0.19773304
20	0xbd8d3ef4	-0.06896773
21	0xbdf5e433	-0.12006416
22	0xbd884a31	-0.06654776
23	0xbc439c73	-0.011939156
24	0x3d9cd73a	0.07658239
25	0xbe4f4155	-0.20239766
26	0xbd9e9fe8	-0.077453434
27	0x3e0cba9f	0.13743065
28	0x3dafc274	0.08582011
29	0x3d11c7dd	0.035590995
30	0x3e37aadb	0.1793627
31	0x3e27d765	0.1639076
32	0x3cadc5ba	0.021212447
33	0xbe261d2c	-0.16222066
34	0xbdb6a877	-0.08918851
35	0x3dec05bf	0.115245335
36	0x3d17a58e	0.03702312
37	0xbd87fb9f	-0.0663979
38	0xbd9d9c80	-0.07695866
39	0x3e84d43e	0.25943178
40	0xbe004084	-0.12524611
41	0xbd6136c7	-0.05498388
42	0x3d81e468	0.06342393
43	0x3c774ab9	0.015093499
44	0x3cf04553	0.029329931
45	0xbddd2c0f	-0.10799419
46	0x3d19a0ff	0.037507053
47	0x3d2233f6	0.039600335
48	0x3d9e0585	0.077158965
49	0xbd0492a3	-0.032366406
50	0x3c30da9a	0.010794306
51	0x3d3c0c4d	0.04591017
52	0xbcea2080	-0.02857995
53	0x3cd30683	0.025759941
54	0x3e8118e6	0.25214309
55	0x3e165897	0.14682232
56	0x3ce49ae6	0.027905893
57	0xbd1e826d	-0.038698602
58	0xbc569761	-0.013097615
59	0xbd611f9b	-0.054961782
60	0xbdc5f79c	-0.09666368
61	0x3d6afc46	0.057369493
62	0x3dd1dd6a	0.102473095
63	0x3d9f257f	0.07770824
64	0x3c6d80a4	0.014496002
65	0x3b7dd3a3	0.0038730882
66	0xbdf1aed0	-0.11800921
67	0xbe2762ed	-0.16346331
68	0xbd14777b	-0.036246758
69	0xbde381bd	-0.1110873
70	0xbe17c9c7	-0.14823066
71	0xbd975f40	-0.07391214
72	0xbc23cea9	-0.009998002
73	0x3de7e440	0.11322832
74	0x3c38b394	0.0112732835
75	0x3de03368	0.10947305
76	0x3c8fec61	0.017568769
77	0x3c345ee4	0.011008952
78	0xbc8097b6	-0.015697341
79	0x3c811e10	0.015761405
80	0x3d5196dc	0.05116926
81	0xbc94993d	-0.018139476
82	0xbd3df8af	-0.04637974
83	0x3cb47491	0.02202824
84	0x3d11409f	0.035462018
85	0xbe954241	-0.2915211
86	0x3ccc6811	0.024951966
87	0x3dd79c89	0.105279036
88	0x3d5ce9f0	0.053934038
89	0xbe55b43c	-0.20869535
90	0xbca0aac4	-0.019612677
91	0x3ce51887	0.027965797
92	0x3d9a55b3	0.07535877
93	0xbc5b1446	-0.013371533
94	0x3cc51f48	0.024062768
95	0xbe8c3129	-0.27381256
96	0x3db24952	0.08705391
97	0xbc5ee639	-0.013604694
98	0x3d4649ea	0.048410334
99	0xbd1cfa93	-0.038324904
100	0xbcb79980	-0.022412062
101	0xbd1d0b8b	-0.038341086
102	0x3e28b99c	0.16477054
103	0xbd4f5fca	-0.05062846
104	0x3b00b6d4	0.0019640224
105	0xbe1844a9	-0.14869942
106	0xbd03a1e2	-0.032136805
107	0x3b4d1ae5	0.0031296548
108	0xbe757314	-0.2396968
109	0xbe5872ac	-0.21137494
110	0xbd5f845f	-0.0545696
111	0x3c900369	0.017579751
112	0xbdc93651	-0.09824813
113	0xbd9aa480	-0.07550907
114	0xbdada167	-0.08478051
115	0xbc9b71fa	-0.018975247
116	0x3e7816c3	0.24227433
117	0xbe6e43b3	-0.23268013
118	0x3d690f5e	0.05689942
119	0xbe6a331b	-0.22871058
120	0xbd429a1f	-0.047510263
121	0xbdbadd19	-0.09124202
122	0x3d760335	0.060061652
123	0x3db5cff8	0.088775575
124	0xbbff1781	-0.0077847843
125	0x3cab7270	0.020928591
126	0x3d99d4b2	0.075112715
127	0x3e444cf8	0.19169986
128	0xbd6163b2	-0.055026717
129	0xbdd3cbb3	-0.10341587
130	0x3b897a71	0.0041955044
131	0xbe686dc6	-0.22698125
132	0xbd1f398a	-0.038873233
133	0xbe4a0955	-0.19730122
134	0xbd89d412	-0.06729902
135	0x3db63685	0.088971175
136	0xbb3055bf	-0.0026906577
137	0xbdc45b91	-0.095877774
138	0xbbca64bf	-0.0061765607
139	0xbd3c081e	-0.04590618
140	0xbd853534	-0.06504288
141	0xbdb05590	-0.0861007
142	0x3d45d504	0.04829885
143	0x3d3e9ad1	0.046534363
144	0xbd8af7c9	-0.067855425
145	0xbe519a44	-0.20469004
146	0xbda5cff5	-0.08096305
147	0x3d8b8fbf	0.06814527
148	0x3e13ff31	0.14452817
149	0xb9ab3dbc	-0.00032661657
150	0xbcd7d431	-0.026346298
151	0xbe38029f	-0.1796975
152	0x3e0b3430	0.13594127
153	0xbe0e9412	-0.13923672
154	0xbd040481	-0.032230858
155	0xbdcfc7bb	-0.101455174
156	0xbb930d8c	-0.004487699
157	0xbc4e8a42	-0.012606205
158	0xbe504718	-0.2033962
159	0x3edc9191	0.43079808
160	0xbf14d37e	-0.5813521
161	0xbd2c0c78	-0.04200408
162	0x3d446ca9	0.04795519
163	0x3d6e75be	0.058217756
164	0x3d322f25	0.04350199
165	0xbdbeb62b	-0.093120895
166	0x3da60ee4	0.08108309
167	0xbd6613b0	-0.05617112
168	0xbdb2d929	-0.08732826
169	0x3ce0a37c	0.027421705
170	0xbd6b5446	-0.057453416
171	0xbcfb9183	-0.030709034
172	0xbe90b456	-0.28262585
173	0x3d983cde	0.074334845
174	0xbe7ca7d4	-0.24673396
175	0xbdaa8e99	-0.083279796
176	0xbd885f4c	-0.066588014
177	0x3e6868d9	0.22696246
178	0x3d59a975	0.053140122
179	0xbd4e96af	-0.05043667
180	0x3d89fd96	0.06737821
181	0x3d2cb3f9	0.042163823
182	0xbc22eb70	-0.009943828
183	0x3bf86199	0.007579994
184	0xbdb77165	-0.08957175
185	0xbd84c74b	-0.064833246
186	0x3e3bf1b8	0.18353927
187	0xbd63e1d6	-0.055635296
188	0xbe10cfe7	-0.14141808
189	0xbe349666	-0.17635497
190	0xbe2222f3	-0.15833645
191	0x3d47679f	0.048682805
192	0x3d01484e	0.031563096
193	0xbe9b4e59	-0.30333212
194	0x3d4ec16f	0.05047744
195	0xbad8e728	-0.0016548382
196	0xbe466f91	-0.19378497
197	0xbdcb0587	-0.09913164
198	0x3db2d67e	0.087323174
199	0x3c39df3c	0.011344727
200	0xbe0a5191	-0.13507678
201	0xbd88df5c	-0.066832274
202	0x3e24143b	0.16023342
203	0xbcbd0f5c	-0.023078613
204	0x3cc8b853	0.024501955
205	0xbe0ee368	-0.13953936
206	0xbd9c32de	-0.0762689
207	0xbd104431	-0.035221282
208	0xbcf9bd2f	-0.030485718
209	0xbdc5c043	-0.09655812
210	0xbd28094f	-0.041024502
211	0x3e9c0f59	0.3048046
212	0xbe796127	-0.24353467
213	0x3e7dc2cf	0.24781345
214	0x3c96362d	0.01833638
215	0x3cd0277b	0.02540945
216	0xbb2a53f5	-0.0025989984
217	0x3d097a8d	0.03356414
218	0x3d4c77a2	0.04991878
219	0xbd1ef73f	-0.03881001
220	0x3d8a267a	0.0674562
221	0xba7edc10	-0.0009722123
222	0xbe212e19	-0.15740241
223	0xbb9bd3db	-0.0047554797
224	0x3e0cf11f	0.13763855
225	0xbe2d34f2	-0.16914728
226	0x3e38af07	0.18035518
227	0x3d1763e4	0.036960497
228	0xbe585c07	-0.21128856
229	0xbe8b77e9	-0.27239922
230	0x3d2fc11f	0.042908784
231	0xbcb3e470	-0.021959513
232	0xbd7aed28	-0.061261326
233	0xbd5e841c	-0.054325208
234	0x3c7a3fb4	0.015273977
235	0xbd982418	-0.07428759
236	0xb9b702dc	-0.0003490661
237	0xbe0900ca	-0.13379207
238	0xbc308daa	-0.010775963
239	0x3e85112a	0.25989658
240	0x3c5badeb	0.0134081645
241	0xbcbb87d5	-0.022891918
242	0xbc869c23	-0.016431874
243	0x3c8ddb4c	0.017316483
244	0x3c19986b	0.009374718
245	0x3d081610	0.033224165
246	0xbe55872b	-0.20852344
247	0xbe65824a	-0.22412983
248	0xbdb8831f	-0.09009384
249	0x3e894223	0.2680827
250	0xbe60acac	-0.21940869
251	0xbc790937	-0.015199951
252	0x3d30d2b4	0.043169692
253	0xbe19122c	-0.14948338
254	0xbe354488	-0.17701924
255	0xbd7927b0	-0.060828865

network.2.bias f4 [84]
0	0xbd43c8f2	-0.04779906
1	0x3e177b5f	0.14793156
2	0xbd878e4f	-0.0661894
3	0xbde49272	-0.11160745
4	0xbe0f6f3e	-0.1400728
5	0x3e9a7836	0.3016984
6	0xbd8ec865	-0.06971816
7	0xbc6c4340	-0.0144203305
8	0x3e976545	0.2956945
9	0x3e8a3eb8	0.27000976
10	0xbda00fdc	-0.07815525
11	0xbe13c7c6	-0.14431676
12	0x3edbe68a	0.42949325
13	0xbe4556b3	-0.19271354
14	0x3e09a8cd	0.13443299
15	0xbe3a7a86	-0.18210801
16	0x3ea1065a	0.31450158
17	0x3c3708cb	0.01117153
18	0x3d13a5f5	0.03604694
19	0xbd9a0159	-0.07519788
20	0xbd1423b1	-0.03616685
21	0xbe5481c8	-0.20752633
22	0x3eb2582c	0.34832895
23	0xbeb0d800	-0.34539795
24	0x3e0901f2	0.13379648
25	0x3d2cf328	0.04222408
26	0x3e077109	0.13226713
27	0x3e0acf55	0.13555653
28	0x3e4bac3e	0.19889924
29	0x3e96b2c9	0.29433277
30	0xbe2ae356	-0.16688284
31	0xbe5a9eeb	-0.21349685
32	0x3eaddb8b	0.3395656
33	0xbdfb39e5	-0.12266902
34	0xbeb850f3	-0.3599926
35	0x3e93b388	0.2884791
36	0x3e047345	0.12934597
37	0x3e1b39a5	0.15158708
38	0xbd9abd0e	-0.075555906
39	0xbeb7e02f	-0.35913226
40	0xbdf44545	-0.119272746
41	0x3c4580f2	0.012054669
42	0x3e4db4fd	0.20088573
43	0xbe8ba1b0	-0.27271795
44	0xbe69ee58	-0.22844827
45	0xbd9c3892	-0.076279774
46	0x3e83a431	0.25711206
47	0x3e595477	0.21223627
48	0xbd90d119	-0.07071132
49	0x3e74c2bc	0.2390241
50	0xbdfa35e4	-0.1221731
51	0xbde357fb	-0.11100765
52	0x3cce3819	0.025173234
53	0x3e21f9ef	0.15817998
54	0xbd8243b9	-0.06360573
55	0xbe9536c4	-0.29143345
56	0x3e70fb52	0.23533371
57	0xbe278f47	-0.1636325
58	0x3de46274	0.11151591
59	0xbd9a7438	-0.07541698
60	0xbe38e192	-0.18054798
61	0x3d235a85	0.039881248
62	0x3cf146af	0.02945265
63	0x3e83ce47	0.25743315
64	0xb9759068	-0.00023418816
65	0x3d6310a0	0.055435777
66	0xbea9a736	-0.33135384
67	0xbdd6e3c4	-0.104926616
68	0x3eda01c5	0.42579475
69	0x3e8e3de7	0.27781603
70	0xbeb57198	-0.35438228
71	0xbe810f69	-0.2520707
72	0x3e73b074	0.2379778
73	0xbe23ebd0	-0.16007924
74	0xbec3f7fd	-0.38275138
75	0xbe0f4f0e	-0.13995
76	0x3ebe50c1	0.37170985
77	0xbea43a98	-0.32075953
78	0x3e2ac5fb	0.16677086
79	0x3c9d4831	0.019199463
80	0xbe3725fb	-0.17885582
81	0x3dc02811	0.09382642
82	0x3e4edee7	0.20202218
83	0xba037999	-0.0005015373

last_layer.weight f4 [21, 84]
0	0xbee6a463	-0.45047292
1	0xbe7ce0f0	-0.24695182
2	0xbdb37d8c	-0.087641805
3	0x3daeb131	0.0852989
4	0xbe4924b7	-0.19642912
5	0x3dd8f3b9	0.105933614
6	0x3ccb9f59	0.024856256
7	0xbe737537	-0.23775183
8	0x3dda8318	0.106695354
9	0x3e58c2a6	0.21168002
10	0xbe211f5a	-0.15734616
11	0xbd0a844f	-0.033817586
12	0x3dfe7c15	0.124260105
13	0xbf296bc5	-0.6618007
14	0x3df94218	0.121708095
15	0xbe384e27	-0.17998563
16	0x3d80a7f2	0.06282033
17	0x3dd65fd4	0.104674965
18	0xbd8637aa	-0.06553586
19	0x3cb482d2	0.022035036
20	0x3e5f68f4	0.2181738
21	0xbe00060d	-0.12502308
22	0x3e113c75	0.14183219
23	0xbd4a1ea2	-0.04934562
24	0x3e24ca8b	0.16092889
25	0xbd8f2664	-0.06989744
26	0x3dee1747	0.116255336
27	0xbba78232	-0.005111956
28	0x3e273a43	0.16330819
29	0x3e2dfbf6	0.16990647
30	0xbe2ace7c	-0.1668033
31	0xbdafac23	-0.08577754
32	0x3e6758fe	0.22592542
33	0xbdfe5a43	-0.1241956
34	0xbd7b6237	-0.06137296
35	0x3e33ff4d	0.17577858
36	0xbe6a730b	-0.22895448
37	0x3e4d53bf	0.20051478
38	0x3ec9af2e	0.39391464
39	0xbdf1eb8d	-0.11812506
40	0xbe34a2cd	-0.17640229
41	0xbd153fe8	-0.0364379
42	0x3e3c0178	0.18359935
43	0xbe211a67	-0.15732728
44	0xbe3e240d	-0.1856844
45	0xbe2956e0	-0.16537046
46	0x3e5b1da6	0.21398029
47	0x3e6432cd	0.22285004
48	0xbdc8e1df	-0.098087065
49	0x3dfd58bb	0.123704396
50	0xbdb641a7	-0.08899241
51	0xbdc6bd82	-0.097041145
52	0x3e48c309	0.1960565
53	0x3de89fa4	0.11358574
54	0x3acda11e	0.0015688275
55	0xbdcb2d7c	-0.09920785
56	0x3e4822a6	0.19544467
57	0xbe3f2ac7	-0.18668662
58	0x3e1951f6	0.14972672
59	0xbe3ec1aa	-0.18628564
60	0xbe02df8d	-0.1278059
61	0x3d087a78	0.03331992
62	0x3d89876a	0.06715281
63	0x3e6d9988	0.23203099
64	0x3da2181b	0.07914754
65	0x3e6170bc	0.22015661
66	0xbdf623da	-0.12018557
67	0xbd103e63	-0.035215747
68	0x3e537e28	0.20653594
69	0x3e2fbaf3	0.17161159
70	0xbe72389d	-0.23654409
71	0xbe122616	-0.14272341
72	0x3e00f59a	0.1259369
73	0x3e7b6942	0.24551871
74	0xbeb8a467	-0.3606293
75	0xbdb93f78	-0.09045309
76	0x3ecaf2bc	0.39638317
77	0xbe569196	-0.20953974
78	0x3de6fd3a	0.11278768
79	0x3ced2b22	0.028951231
80	0xbe0aef95	-0.13567956
81	0x3e12ad6b	0.14323966
82	0x3eb0593b	0.34443077
83	0xbe038a20	-0.1284566
84	0xbec57b55	-0.38570657
85	0xbda7a23f	-0.08185243
86	0xbdc074bf	-0.093972676
87	0x3dd63e7f	0.10461139
88	0xbdebd15c	-0.115145415
89	0x3e1fb113	0.15594892
90	0x3e0ed5c1	0.13948728
91	0xbd7d8c6f	-0.061901506
92	0x3e1d4bb2	0.15360907
93	0x3e782a58	0.24234903
94	0xbdaa008a	-0.08300884
95	0xbe55380b	-0.2082216
96	0x3d6f6c0b	0.058452647
97	0xbf15c96a	-0.5851046
98	0x3de5229e	0.11188243
99	0xbe10fef5	-0.14159758
100	0x3e421151	0.18951918
101	0x3daa10c4	0.08303979
102	0xbc4c374b	-0.012464355
103	0x3e607a8f	0.21921752
104	0x3e884fb2	0.26623303
105	0xbe5bc948	-0.21463501
106	0x3e1453f8	0.14485157
107	0xbe3b42b6	-0.18287167
108	0x3e6cdbc8	0.23130715
109	0x3e1beb5c	0.15226501
110	0x3de65179	0.112460084
111	0xbd200c3b	-0.039074164
112	0x3c903236	0.017602067
113	0x3dbdb5b5	0.092631735
114	0xbe7d7aca	-0.24753872
115	0xbe07e23c	-0.13269895
116	0x3e47a588	0.19496739
117	0xbe0901f9	-0.13379659
118	0xbde4fc75	-0.11180965
119	0x3e2da097	0.16955791
120	0xbdc99f5b	-0.09844848
121	0x3d4d5bf6	0.05013653
122	0x3eab18f8	0.33417487
123	0xbcbf1ba7	-0.023328615
124	0xbe0878cb	-0.13327329
125	0xbdd5f4fb	-0.10447117
126	0xbcb1fb7f	-0.021726368
127	0xbdb8893a	-0.09010549
128	0xbe791bfd	-0.24327083
129	0xbdca82c5	-0.098882236
130	0x3e2f1c85	0.17100723
131	0x3e2255e4	0.15853077
132	0xbc7a2551	-0.015267686
133	0x3e38cb90	0.18046403
134	0xbd745f09	-0.059660945
135	0xbdc224fc	-0.094797105
136	0x3e049173	0.1294611
137	0x3de070a7	0.10958987
138	0xbd2bf20c	-0.04197888
139	0xbdd90074	-0.105957896
140	0x3e56cc01	0.20976259
141	0xbe669310	-0.22517037
142	0x3e581125	0.2110029
143	0xbde71796	-0.112837955
144	0xbd4164c3	-0.047215234
145	0x3c6c6d1f	0.014430313
146	0x3dd5e17a	0.10443397
147	0x3d5a5b91	0.05330998
148	0x3d7783ed	0.06042855
149	0x3e024d56	0.12724814
150	0xbe568f2f	-0.20953058
151	0xbe2fb570	-0.17159057
152	0x3e04f0bd	0.1298246
153	0x3e55d2cb	0.20881192
154	0xbe3748c8	-0.17898858
155	0xbe2b5846	-0.16732892
156	0x3e3418b3	0.17587547
157	0x3e9e6686	0.30937594
158	0xbf01d105	-0.50709563
159	0xbe19a1b0	-0.15003085
160	0x3eea9ef0	0.45824385
161	0xbe2186e9	-0.1577412
162	0x3dde3bdf	0.10851263
163	0x3dfb9749	0.12284715
164	0x3d80f124	0.06295994
165	0x3ddcd962	0.1078365
166	0x3e961938	0.29316115
167	0xbe474b5b	-0.1946234
168	0xbedf5e65	-0.43626705
169	0xbe1b6454	-0.15174991
170	0xbe5ee6ff	-0.21767806
171	0x3e0c3cf4	0.13695127
172	0xbe464e7a	-0.19365874
173	0x3e5c45bf	0.21510981
174	0x3d06b606	0.032888435
175	0xbe324426	-0.17408809
176	0x3e6b4ef9	0.22979344
177	0x3e640096	0.22265849
178	0xbe00351a	-0.12520257
179	0xbe30de7f	-0.17272376
180	0x3e414107	0.18872462
181	0xbf30708f	-0.6892175
182	0x3e333b8e	0.17503187
183	0xbe6c70e2	-0.23089936
184	0x3d821252	0.063511506
185	0x3e17ad19	0.14812125
186	0xbda0bc27	-0.07848387
187	0x3d9fbd07	0.07799726
188	0x3e10ca8e	0.14139768
189	0xbdbd0387	-0.092291884
190	0x3e30b968	0.17258227
191	0xbd98c768	-0.07459909
192	0x3e7f1ac2	0.24912551
193	0xbd35810e	-0.04431253
194	0x3df7081c	0.120620936
195	0xbdaea174	-0.085268885
196	0x3dfcf353	0.12351098
197	0x3df745cc	0.120738596
198	0xbe2527b1	-0.16128422
199	0xbe2b25a7	-0.16713582
200	0x3e5c872c	0.21535939
201	0xbd9d1955	-0.07670847
202	0xbe0d1810	-0.1377871
203	0x3e2fef50	0.17181134
204	0xbe3eb6b3	-0.18624382
205	0x3e2f98e8	0.17148173
206	0x3ee81690	0.45329714
207	0xbe06880b	-0.13137834
208	0xbd88cd40	-0.06679773
209	0xbd70ce96	-0.058790766
210	0x3db5840d	0.08863077
211	0xbe4057ca	-0.18783489
212	0xbe3bc4e9	-0.18336834
213	0xbd9b510c	-0.07583818
214	0x3d871d12	0.065973416
215	0x3e5dd466	0.21663055
216	0xbe41d044	-0.18927103
217	0x3d30f324	0.043200627
218	0xbd9da4cf	-0.0769745
219	0xbd69acd6	-0.057049595
220	0x3d1400e8	0.036133677
221	0x3dd32364	0.103094846
222	0xbdbfd740	-0.093672276
223	0xbe49e3a6	-0.19715747
224	0x3e1f2dbf	0.15544794
225	0xbe380744	-0.17971522
226	0x3e13d52d	0.14436789
227	0xbe2124b6	-0.1573666
228	0xbd7cc604	-0.06171228
229	0xbe027d4a	-0.12743106
230	0xba54f9d4	-0.00081243855
231	0x3dee8267	0.11645966
232	0x3d01cd6c	0.031690046
233	0x3e366323	0.17811255
234	0xbc78c8ee	-0.015184624
235	0xbdbd4d54	-0.09243265
236	0x3e0c6bf5	0.13713057
237	0x3deea034	0.1165165
238	0xbe0aa995	-0.13541253
239	0xbe588c02	-0.21147159
240	0x3daef284	0.0854235
241	0x3e41e8ea	0.18936506
242	0xbef3789c	-0.47552955
243	0xbe063abf	-0.13108347
244	0x3ecc00e8	0.3984444
245	0xbe8717b9	-0.26385286
246	0x3ce5253c	0.027971856
247	0x3e1bb273	0.15204792
248	0xbc9c29b3	-0.019062852
249	0x3e308cb5	0.17241175
250	0x3ec8aecd	0.39195862
251	0xbdb5fcec	-0.08886132
252	0xbec0ecc7	-0.37680647
253	0xbe610fc7	-0.21978675
254	0xbe0bfec8	-0.1367141
255	0x3ddf1672	0.10892953

last_layer.bias f4 [21]
0	0x3e11afbe	0.14227197
1	0x3e0a52ad	0.13508101
2	0x3e3286c0	0.17434216
3	0x3df48763	0.119398855
4	0x3d99a275	0.07501689
5	0x3e16bb4a	0.14719883
6	0x3d3c3283	0.04594661
7	0x3e211c0c	0.15733355
8	0x3d21c819	0.03949747
9	0x3e4fcdb8	0.20293319
10	0x3de0b493	0.10971942
11	0x3ddca0ad	0.10772834
12	0x3e396384	0.18104368
13	0x3d94df82	0.07269193
14	0x3e344408	0.17604077
15	0x3e1b0b14	0.15140945
16	0x3e09ed82	0.13469508
17	0x3d1e1c49	0.038601194
18	0x3e45db28	0.19321883
19	0x3e58d84e	0.21176264
20	0x3d9dd271	0.07706154
